model_2.pt (torch, 407733 bytes, 14 tensors)

conv1.weight f4 [8, 3, 3, 3]
00000000: ca39 0d3d e432 37bd 6651 0c3e 271f c03d
00000010: 5fee dcbd cc92 b03c 8675 443e 2fa7 a73d
00000020: 7942 043d 52d2 e83d 1f14 04bd 9339 0dbd
00000030: 84ab 8d3d 93a1 fabd e52a 543e a696 1f3e
00000040: 65a2 0cbe 7683 c8bd e2d8 203d b8ed 2e3e
00000050: 00fd 07bd 3c76 0cbe 6848 253e 58b2 cabb
00000060: 0eb0 0a3e d4c9 06be 4a5f 243e 579e c7bd
00000070: 1e76 eabc 75a5 41be 190e 833b 9305 15be
00000080: fca2 1d3e a482 ebbc f3ae b9bd 34f3 03be
00000090: fff8 46be e9d5 c43d 34d0 273e 3fbf f73d
000000a0: ff70 03be 74d8 993d 442a 393e 2927 e2bd
000000b0: ef8b 323e 2bb5 d33d 7247 8fbd 7dac 343e
000000c0: bedf bcbd 0b09 1e3d ba3b 0b3e fdf4 05be
000000d0: 64c7 b4bc 5020 8a3d 08d0 2f3e d0c5 873d
000000e0: f942 cdbd 5038 87bd 374d 7ebd 810b 20be
000000f0: 3ba6 1abe 17aa 3f3d 271d 673d b363 2a3d
00000100: 6dc5 03bc 2f04 31be 4d41 9fbd 5800 01be
00000110: 8473 6f3d 49b8 053e 260b f7bc 4bf0 993c
00000120: 6bda 84bd 0562 e0bc f747 bd3d 32be b03d
00000130: e3bb 2c3e 3ad7 223e 3605 babd 5736 0bbd
00000140: 2937 993d 32d0 2e3e e35c 4c3e 9af0 9cbc
00000150: 3bb7 743d cbc0 c4bc f0c6 073e 8566 a43c
00000160: 940a de3d a26b 1f3e 9772 723c d60a 803d
00000170: 80b8 e93d 73c2 1b3d a2ef b5bd 992e e5bd
00000180: cd94 f13c 6f8c 3f3e c22a 983d 0882 143e
00000190: 2feb 073d e9f8 233e a163 d5bc 5207 c1bd
000001a0: 53e1 11be f5ef 2e3e a428 4d3d ddfe b53c
000001b0: ac6c 90b9 4b86 19bc b1eb 50bd 6130 743a
000001c0: 9302 10bd 9a31 323d b58a 53bc 3687 003d
000001d0: 8117 74bd d386 e0bb 8eb8 f7bb 5c9a 473d
000001e0: c8ad 703b 7d0b 243d b9b9 1f3a 7bdf 063a
000001f0: b2df 0bbd dac4 02bd 83fe bcbc 598b e2bc
00000200: 822b 023d c765 63bd 2a16 b13c 4ad9 003e
00000210: 667b d6bc c783 f13c e8de bd3c c732 153e
00000220: a6f6 a8bd e0a1 0dbe 90c6 e1bd 6158 00bd
00000230: b0b6 2abe b36c f2bb 78dd b5bd e053 073d
00000240: 1906 543e d360 47bd c7ce 293e 3632 4b3d
00000250: f66a ec3c bbcb f63c 8986 a73d b0c3 06be
00000260: 94ee 1dbe 431e 463e 98a4 6abd 2a4e 97bd
00000270: 7598 6fbb 0452 413e 4eb8 803d 1c9a 26bc
00000280: 6e67 a6bd f9be 433e a055 fabd 0cd7 82bd
00000290: 936c ca3c bd12 ed3d b0f4 633d 3415 2ebe
000002a0: 8075 95bd dd3f af3d ec4f 3c3e 56e2 1bbe
000002b0: f5e9 d03b d271 abbd 912b f63d 58be 0d3e
000002c0: f576 ce3d a812 efbc 09b7 a03d 086b 94bd
000002d0: abef cd3d 0fcf 12be 8dc5 54bc 6fb7 0b3c
000002e0: 5aa4 223e 410c 7cbd 3b59 21be f20c fd3d
000002f0: c73b 8c3b 8d1d 273e ad64 243e 5768 65bd
00000300: 5676 10bd 018a 2e3e a0c9 133e c717 543d
00000310: 67ea 9cbd 43b1 4d3d ca91 d83d e9ec f93b
00000320: daf5 b1bd 4c41 273d 9a82 593e 59f4 f4bd
00000330: 92aa 0b3e 1dff 553e 32cc 9e3d 6218 063e
00000340: 2626 c13d b747 bf3d 3bb5 903d 8927 e63d
00000350: c8a6 3b3d 1679 f73d a545 d53d 83b6 243e
0.03447894 -0.044726267 0.13702926 0.09380942 -0.10787653 0.021554373 0.19185457 0.081861846
0.032289956 0.113682404 -0.03224575 -0.034478735 0.0691748 -0.12237849 0.20719488 0.15584812
-0.13733824 -0.09790699 0.039269336 0.1708287 -0.033200264 -0.13716978 0.16140902 -0.006185811
0.13543722 -0.13162929 0.16051975 -0.09746998 -0.028620776 -0.18910773 0.0039994833 -0.14552908
0.15394205 -0.028748818 -0.09066572 -0.12885743 -0.19430922 0.096111126 0.16388017 0.12097024
-0.12836073 0.07511988 0.1808253 -0.110426255 0.17436193 0.103372894 -0.06996049 0.17643924
-0.09222363 0.038582843 0.13597003 -0.13081737 -0.022067733 0.06744444 0.17169201 0.066295266
-0.1002254 -0.06602538 -0.062085357 -0.15629388 -0.15102474 0.04679307 0.056424286 0.041598987
-0.008042675 -0.17286752 -0.07776127 -0.12597787 0.058459774 0.1305858 -0.030156683 0.018791338
-0.064869724 -0.02739049 0.09242242 0.08630027 0.16868548 0.15902415 -0.09083025 -0.03398737
0.07481224 0.17071608 0.19957308 -0.019157697 0.059745055 -0.024017712 0.13259482 0.020068416
0.10841861 0.15568402 0.014797828 0.06252067 0.11412144 0.038027238 -0.08883597 -0.111905284
0.029489899 0.18705915 0.074300304 0.14502728 0.033183273 0.1601292 -0.026048483 -0.09425224
-0.1424611 0.17083724 0.050087586 0.022216255 -0.00027546787 -0.009370397 -0.051006023 0.00093150703
-0.035158705 0.043504335 -0.012911488 0.031378947 -0.059592728 -0.00685201 -0.0075598424 0.048731193
0.0036724675 0.04005002 0.00060930435 0.00051449955 -0.03414888 -0.031926014 -0.02307058 -0.027654337
0.031779774 -0.055516984 0.021617014 0.12582889 -0.026181888 0.029481782 0.023177579 0.14570151
-0.082501695 -0.13831282 -0.11024201 -0.031334285 -0.16671252 -0.007398212 -0.088801324 0.033038974
0.20705451 -0.048676323 0.16582786 0.04960843 0.028859597 0.030126443 0.081799574 -0.13160586
-0.15423042 0.19347481 -0.057285875 -0.073879555 -0.0036559377 0.18878943 0.06285153 -0.0101685785
-0.081251964 0.19115819 -0.12223363 -0.06388673 0.024709975 0.1157584 0.055653274 -0.17000276
-0.07297802 0.08557103 0.18389863 -0.15223059 0.006375546 -0.08371319 0.120200284 0.13842142
0.10081283 -0.0291837 0.07847411 -0.07246977 0.10055479 -0.14336799 -0.012986553 0.008527621
0.15883008 -0.061535124 -0.15756695 0.12355985 0.004279587 0.16319866 0.1605403 -0.05600771
-0.035269104 0.17044832 0.14432383 0.05178049 -0.07661896 0.050217878 0.10574682 0.007627119
-0.086894706 0.040833756 0.21241227 -0.11960668 0.13639286 0.20898099 0.07753791 0.13095239
0.09431104 0.093398504 0.07065817 0.112380095 0.045813352 0.12083642 0.10413674 0.16085248

conv1.bias f4 [8]
00000000: 8043 b0bd dec4 103e 5feb dabd 0b1b 24be
00000010: 2084 dfbd 2892 253a e244 eabd 3a25 e43d
-0.086066246 0.14137599 -0.10689425 -0.16025941 -0.10913873 0.00063160295 -0.114389196 0.11139913

conv2.weight f4 [16, 8, 3, 3]
00000000: d6b6 e9bb 6439 0d3e e054 a73b b50f ab3d
00000010: 185a c8bb fbe4 103e 7b03 4abd 7bc9 a23d
00000020: 35af b53d 127e e0bd 95b0 08be 474e 49bd
00000030: dfb9 febd f89b 1ebe e1c8 0abe dc31 713d
00000040: d01e 893c 8621 7fbd 2f76 36bd fa0e 373d
00000050: 8e31 3d3d fd8c aa3c b81c 293d 05c1 76bc
00000060: 444d 72bd 07ed b53c 8555 62bd a3ca 0a3e
00000070: b69e f73d 5806 7cbd a576 8cbc 0d8f e03c
00000080: 38a6 3bbc be61 043e 8b4e 783d 4fc0 10bd
00000090: a5f7 323a 531d 0cb9 cd77 023c 9569 1bb9
000000a0: 7711 52b9 5375 2fb9 7bc3 d83a 4b9a 44b9
000000b0: ff95 abb9 cd79 083b 045a 24bd 5b1a 303d
000000c0: 1250 d3bd 65e7 cebc eb1e 50bd 8c1d 983d
000000d0: 14cf 28bc f2c2 b73d ca42 953d 5360 9bbd
000000e0: 97da cbbd 554f f6bd a36b 00be 201c b13c
000000f0: ff16 a43d e0d4 843d 6d40 7ebc 5911 4b3d
00000100: d279 6f3d acfd 043e 7610 a63d ea0c 6bbd
00000110: 1615 523d 8841 b03b f1b6 943d b6b6 e2bc
00000120: 2436 8cbd 7085 853c 5e66 5c3d 65fd 36bd
00000130: 3f02 1abc 6a26 503d 5ba6 ab3c cf4d 8b3d
00000140: ba34 a93d 31f9 3d3c 3685 143c dc6b a9bd
00000150: 8b4d d3bd f71b abbd 8b95 813d ed0d dbbd
00000160: b2b4 1e3d a3bc 8a3d 99e0 38bb 9002 7ebc
00000170: b131 493c 001a 8138 85cd 17bc afe4 f1bb
00000180: ef1e 7238 1211 593c bf98 80bd ff90 62bd
00000190: 8270 d8bd 0bd1 723d ed46 693d 8aab 81bd
000001a0: 70c5 a4bc 13f2 923d 36d9 80bd 83a3 3bbc
000001b0: c6d1 61b0 b7c1 3d39 701a 88b8 67da d481
000001c0: da81 ab38 7a49 3f3b e45e 9201 b1e8 d538
000001d0: e7cc 4f38 16ac 493d 593d 96bb a6ce 393c
000001e0: c90b 9d3d 8c26 e2bc b7d2 353d bcef ad3c
000001f0: 0660 483d 2600 6d3d 405f 23ba c105 323c
00000200: 9b9c dcbc c726 30b9 c9f9 a4b8 a384 463d
00000210: 3e14 07bb 5f1d 06b8 7ca1 5fbd 7c50 0d3d
00000220: 2ec0 863d 0fb6 0ebc da52 acbd 561c a7bd
00000230: efb6 1b3b 9f1a c3bd 25ca d0bd d46e b43c
00000240: bf88 883d 73f6 65bd 441a 0b3e 0782 a73d
00000250: c2d1 00bd da19 d13d 1b29 1c3e ac1a b7ba
00000260: 2659 003e de43 5e3d 1739 613d 508e b5bd
00000270: 4f6e 1a3c ace4 9ebd 41a2 f9bc b0e2 c9bd
00000280: 0a01 a53d e880 543d 36fc c1bc 3730 073c
00000290: f44f bd3d e6f3 62bd a513 cf3d fcd0 a53d
000002a0: f35a c5bd 2392 c0bd 129c bf3d 2567 0f3d
000002b0: d49a 953d fe4f b7bc 4958 893d 0428 2e3e
000002c0: 2850 053d 952e 0a3d 2229 ec3d a40e c53d
000002d0: 59f8 3abb f25b 94b9 20cd 60b9 2c2c e939
000002e0: 44ca 40b9 a51f 50b9 9180 e73a 7d63 beba
000002f0: 9e95 32ba d4ef 1dbd 983e fe3c dbf3 01bc
00000300: 3e37 a13d d8cb edbd 0dea 1c3d c6f6 edbc
00000310: 0395 17bd 4136 c3bd a1f8 cdbd dd83 203c
00000320: 1c02 bd3c bf80 81bc 415c 76bd 53e8 ce3b
00000330: c408 d13b 69de f0bd 69eb c1bc ea7c 053e
00000340: 2ea7 d83d ee28 1cbd 75c6 d13d ef31 65bc
00000350: 3acf 15bb 41c8 da3d f6cc 8abd b9e1 e03d
00000360: 8014 acbd 497f a73d bd8f f13c 354a 853d
00000370: 8637 ae3d d7d9 c63c f2aa cc3c 2aba 68bd
00000380: b6a4 c5bd ec8c 78bd e7f3 cdbc 3a7d a7bd
00000390: ff9e 6b3d 96c3 f63d 8bc9 c3bc daa0 3b3d
000003a0: d699 fabc 727c 9f3d d487 aabd 154e 0c3c
000003b0: 79cc 8ebd 0af5 72bd 8c6b 453d 9eb6 5c3d
000003c0: 2549 a2bd 1a30 363d 1a3f 9a3d 7a79 8ebd
000003d0: ca1d 67bd bc89 c0bc c044 f6bc af95 15bd
000003e0: 60ab debc 8cb0 84bd af11 16bd 0f7f ca3d
000003f0: 1435 303a 4339 e5ba d664 3938 1fbe 4239
-0.0071323914 0.13791424 0.0051065534 0.08352605 -0.0061142556 0.14149849 -0.049319725 0.079485856
0.08871309 -0.10961546 -0.1334861 -0.049146917 -0.12437796 -0.15489185 -0.13553192 0.05888544
0.016738325 -0.06228783 -0.044546302 0.044692017 0.046189837 0.020819182 0.041287154 -0.015060668
-0.059155717 0.02220775 -0.05525734 0.13553862 0.120908186 -0.061529487 -0.017146418 0.027411962
-0.011453204 0.1292791 0.06062178 -0.03533965 0.0006827063 -0.00013362365 0.007963133 -0.00014821284
-0.00020033667 -0.00016733007 0.001653775 -0.00018749495 -0.00032727417 0.0020824552 -0.040124908 0.042993885
-0.103180066 -0.025256822 -0.050810736 0.074275106 -0.0103032775 0.0897273 0.0728813 -0.07586732
-0.09953802 -0.1202685 -0.1254106 0.021619856 0.08012199 0.06485915 -0.01551829 0.04957709
0.058465786 0.12987393 0.081086084 -0.057385363 0.05128964 0.0053789057 0.07261456 -0.027675014
-0.06846264 0.01629898 0.053808562 -0.04467525 -0.00939995 0.050817885 0.020953348 0.0680195
0.0826201 0.011595056 0.009064963 -0.08272526 -0.103175245 -0.08354943 0.06327351 -0.106960155
0.038746543 0.06774261 -0.0028210043 -0.015503541 0.012279914 6.156042e-05 -0.009265308 -0.0073819975
5.7726105e-05 0.013248699 -0.06279134 -0.05531406 -0.10568334 0.05928139 0.056952406 -0.063315466
-0.020113677 0.07175078 -0.0629143 -0.011452558 -8.215263e-10 0.00018096609 -6.48991e-05 -7.818989e-38
8.178102e-05 0.0029188083 5.376809e-38 0.000101999736 4.9543476e-05 0.04923638 -0.00458495 0.011340773
0.076682635 -0.027606271 0.044390406 0.021232478 0.0489197 0.05786147 -0.000623215 0.01086563
-0.026930144 -0.00016799114 -7.8666555e-05 0.048466336 -0.002061143 -3.1975444e-05 -0.054597363 0.034500584
0.06579624 -0.008710398 -0.0841424 -0.081597015 0.002376016 -0.09526562 -0.10194806 0.022025503
0.06666707 -0.056143235 0.13584238 0.081790976 -0.03145004 0.10210009 0.15250055 -0.0013969741
0.12534007 0.054263942 0.054986086 -0.088650346 0.009425714 -0.077584594 -0.030472877 -0.0985769
0.08056839 0.051880747 -0.023679834 0.008251241 0.092437655 -0.05540838 0.10111169 0.08096501
-0.09636488 -0.09402873 0.0935594 0.035010476 0.07304922 -0.02237701 0.06706292 0.17007452
0.032547146 0.03373583 0.11531283 0.09621933 -0.0028529374 -0.00028297264 -0.0002143872 0.00044474134
-0.00018385897 -0.00019848214 0.0017662217 -0.00145255 -0.0006812456 -0.038558796 0.031035706 -0.007931675
0.07871865 -0.11611146 0.038309146 -0.029048335 -0.037007343 -0.095318325 -0.10057188 0.009797064
0.023072295 -0.015808461 -0.060146574 0.0063143163 0.006379219 -0.11761171 -0.023671823 0.13035932
0.10578762 -0.03812497 0.10242931 -0.013988956 -0.0022859112 0.10682727 -0.067773744 0.10980553
-0.084023476 0.081785746 0.029487485 0.065082945 0.08506684 0.024273796 0.024983857 -0.056818165
-0.09650557 -0.06068127 -0.025140716 -0.08178182 0.057524677 0.12049024 -0.023899814 0.045807697
-0.030590933 0.07787408 -0.083266884 0.008563538 -0.06972594 -0.05931572 0.048198268 0.053885095
-0.079241075 0.044479467 0.07531567 -0.069567636 -0.056424893 -0.023503177 -0.03006208 -0.036519703
-0.027181327 -0.06478986 -0.03663796 0.09887516 0.00067217764 -0.0017488379 4.4201348e-05 0.00018572107

conv2.bias f4 [16]
00000000: fcff 003d ec6f 753d 5a8a a03b 9208 a8bc
00000010: c862 673d 0dcb 013e 8d65 f6bc 274f 0a3e
00000020: d9bb db3d 3b1d 7fbd 6627 3bbd a02a 973d
00000030: 4cf8 1c3d 4531 a294 0d85 29bd f213 1abb
0.031494126 0.05992119 0.0048993053 -0.0205119 0.05649069 0.12675114 -0.03007772 0.13506757
0.107291885 -0.062283736 -0.04569187 0.07381177 0.03832273 -1.6377253e-26 -0.041386653 -0.0023510423

conv3.weight f4 [32, 16, 3, 3]
00000000: 31f5 bdbc 7e26 b5bc 315e a63c 8685 55bd
00000010: 9030 363d 687d 8e3d 3f79 62bc 2bec 8a3d
00000020: ab6c 75bc 200a 6ebd fc8c 513d 85ae 003d
00000030: 4e87 ae3c 7e28 a73c 887a ae3b 94ec 55bd
00000040: 5b3f 15bd a9b6 e1bc f583 c63a ad74 21bd
00000050: d28f efbb 07b7 4e3b 0dc0 86bd dce0 0a3b
00000060: 8fc0 973d 567c 323b 9583 6cbd 56a4 843d
00000070: e89c 15bd fb02 cfba 14f7 233d 188a ff3c
00000080: fbc0 7dbb 2211 1e3c 7386 063d aaef ee3a
00000090: 5b4c 063c 9f87 153d eb68 013c 6d33 9bbb
000000a0: 2d4d 52bc 21c6 58bb 476f 0b3b 4d32 3f3d
000000b0: 2ed4 46bd 6cc4 ff3d 1151 c03d cbd6 cd3d
000000c0: 3490 de3d 5ca1 c93c 44a6 743d 872b c33d
000000d0: 501b b23d 20da d33c 02e3 1dbd 8b14 82bc
000000e0: 55cf 973d 78b6 5d3d ea8e f73c 8731 cbbb
000000f0: c5c4 403c 9f47 203d 24ea 8fbd 768c ffbc
00000100: 5d3c b9bc 7fe7 0e3e 86d9 e03d 3a5f 0a3e
00000110: a6fc db3d 6b61 bb3d 3528 0f3c 0904 593d
00000120: cc7b cb3b 9ea8 42bd 31eb 8cbd a3b9 373d
00000130: 59fc 8fbd c415 a93d 533a edbc 501f b73d
00000140: ea41 2abd a92f 5b3b dfb7 f23b 74dc 7e3c
00000150: 99a5 8e3a 0ad3 813b 0529 883c c709 be3b
00000160: 7121 313c be8e a83c fecf 813b 0e35 bd3b
00000170: 6a44 3a3d 29de 5bbc 877f 6d3c 1d68 373d
00000180: e565 8e3c c9b7 553c 0f56 e13c 0899 7dbc
00000190: 24e6 05bc 82a3 bc3d 4ddf f9bc 2d40 303d
000001a0: ec41 9fbc 7e7a a03c 6677 eabc 544f fc3d
000001b0: 3bb1 9dbc 8686 2abd 6ff0 b83d 700e 2ebd
000001c0: 1ad4 753c b47d 4abc 8f64 abbc b167 913d
000001d0: bf8f ad3d e23b 5601 c24f 2081 1821 d000
000001e0: b8dc 0181 6041 1300 0025 1981 803c 5481
000001f0: 00a7 5901 80e9 de01 a920 b43b d975 8ebb
00000200: 02a1 acba f7b0 043d a3b5 493c 5d8f 2a3d
00000210: 6863 973d 4113 55bc 9d0d 783d 033c c43c
00000220: 94e2 1cbd 8f41 24bd e59a f8bc e8f5 78bd
00000230: dd9d 0cbc 1997 6fbd 6210 d3bc 55a0 483d
00000240: 9595 40bc adc7 c43d 6384 663c 893c be3c
00000250: e3d3 783d ffd8 253d 4b4d 02bb 4293 c3bc
00000260: e690 733d 9b3d 9b3c 92ef a23c ecd5 c8bc
00000270: d751 c03c 4d29 893b 5a6b d63c fa5b f5bb
00000280: c322 b4bc 462c abbc 83eb 163d 967e 15bd
00000290: db4c 2abd 7615 1cbd 2163 8bbc db26 86bd
000002a0: c1a1 96bc 09b5 59bd 7468 cd3c d18b 3bbd
000002b0: 5a51 51bd dfaa 19bd fa5b ee3c 4c62 103b
000002c0: 840d 313d d2d7 1d3d 2fe2 1c3c ccbf 9abc
000002d0: 6e58 35bb 6079 7d3c 1553 be3c 0573 a23c
000002e0: 62da 23bc 0cca 303c 1445 dd3c 3683 213c
000002f0: 6e70 64bc c2ff 79bd e92a e03b 66cc 813c
00000300: b515 b0bd 9d01 513d 73d0 763d a799 d2bd
00000310: ef42 803d 90b6 7abc 42e5 963d bed1 723c
00000320: d163 e4bc ef53 d03d ebf7 1fbd 8085 84bd
00000330: fe8b 323d beee 4b3c aa57 63bd 0c18 d7bd
00000340: 5167 a3bd 9eda 02bc 360b 16bc 8b14 403c
00000350: 1963 a2bd 1a8f fbbd f5e6 efbd 8ee9 50bd
00000360: a609 943c 2cfe c63d 3a29 0cbd 5d13 c43d
00000370: 8e3b 9a3d 397e 3bbc a693 cd3d eb5f 86bc
00000380: 5e3b b53a 48a8 28bc ab7d 09bc efec f5bb
00000390: 78b5 52bc 8697 23bc 5563 f2bb c45f 75bc
000003a0: 0576 3fbc 06e1 fabb 755a fbbb 2acf 39bc
000003b0: 8f33 17bc 07bc 5ebc 6161 74bc 5218 47bc
000003c0: bf0d cdbc d517 87bc a2ae 27bc f8a7 37bc
000003d0: b999 9ebd ae6e 0abd ddf8 803c 983f 883b
000003e0: 4691 2e3d 686b fcbc f4ee 8dbc bcf8 963c
000003f0: 8fad 80bd 8f3d 8c3d c8df 2cbc 2997 9a3c
-0.023188205 -0.022113081 0.020308586 -0.05212929 0.044479907 0.06957513 -0.013822853 0.06783327
-0.014979522 -0.058115125 0.051159844 0.031416435 0.021304753 0.02040505 0.0053246655 -0.05222757
-0.036437374 -0.02755292 0.0015145527 -0.03941791 -0.007310846 0.0031542198 -0.065795995 0.0021191156
0.074097745 0.0027234755 -0.057742674 0.06476657 -0.03652659 -0.0015793735 0.040030554 0.031193778
-0.0038719762 0.0096476395 0.032843065 0.0018229384 0.0081969155 0.03650629 0.00789855 -0.004736355
-0.012835783 -0.0033077078 0.0021276043 0.04667883 -0.048542194 0.124886364 0.09390462 0.10050734
0.10867348 0.024613075 0.059728876 0.095297866 0.08696616 0.025860846 -0.03854657 -0.015878936
0.07412592 0.054129094 0.030219514 -0.0062009725 0.0117656635 0.039130803 -0.07027081 -0.031194907
-0.022611791 0.13955496 0.10978989 0.13512889 0.10741548 0.091494404 0.008737613 0.052982364
0.006209826 -0.047524087 -0.06880797 0.04485477 -0.07030553 0.082561046 -0.028958475 0.08941519
-0.041566767 0.0033445156 0.007407173 0.01555549 0.0010883092 0.0039619254 0.016621122 0.0057995054
0.010811196 0.020575877 0.003961562 0.005774147 0.0454754 -0.013419666 0.014495737 0.044777025
0.017382571 0.013044306 0.027506856 -0.01547838 -0.008172546 0.09210874 -0.030501986 0.043029953
-0.019440614 0.019589659 -0.028621387 0.12319818 -0.01924955 -0.041632198 0.09030234 -0.042494237
0.015004182 -0.0123590715 -0.020921974 0.07099856 0.08474683 3.9348556e-38 -2.9444582e-38 1.9113655e-38
-2.3851916e-38 1.768327e-39 -2.8128208e-38 -3.8981657e-38 3.9976422e-38 8.1884977e-38 0.0054970575 -0.0043475446
-0.0013170543 0.03239533 0.012311372 0.041640628 0.07392007 -0.013005079 0.060559858 0.023954397
-0.03830202 -0.040101584 -0.030347297 -0.06078139 -0.008582559 -0.058493707 -0.025764648 0.04898103
-0.011754413 0.09608398 0.014069649 0.023222225 0.060748946 0.040490147 -0.0019882496 -0.023873929
0.059464358 0.018950274 0.019889627 -0.024516068 0.023476524 0.0041858316 0.026174236 -0.007487771
-0.021989232 -0.020895135 0.036845695 -0.036497675 -0.0415772 -0.038106404 -0.017015042 -0.0655038
-0.018387677 -0.053151164 0.025074221 -0.045787636 -0.051102974 -0.03751647 0.029096592 0.0022031246
0.04322578 0.0385359 0.009575411 -0.018890284 -0.0027671116 0.015470833 0.023232976 0.019830236
-0.010000797 0.010790359 0.027010478 0.009857943 -0.013942821 -0.061034925 0.006841053 0.015844535
-0.0859789 0.05102693 0.060257386 -0.10283213 0.062627666 -0.015302315 0.07367946 0.014820514
-0.027879627 0.10172259 -0.039054792 -0.064707756 0.04359054 0.012447057 -0.055503525 -0.105026335
-0.079786904 -0.007986693 -0.009157946 0.011723648 -0.07929058 -0.12283154 -0.117139734 -0.051003985
0.018071007 0.09716448 -0.034219004 0.09574006 0.075308904 -0.011443668 0.10037927 -0.01640316
0.0013826897 -0.010294028 -0.008391778 -0.0075050513 -0.012860648 -0.0099848565 -0.007397095 -0.014976446
-0.011685853 -0.0076562194 -0.0076706954 -0.011340896 -0.009228601 -0.013594634 -0.014915795 -0.0121517945
-0.025030969 -0.016490856 -0.010234507 -0.01120948 -0.07744164 -0.03379696 0.015743667 0.0041579716
0.042619012 -0.030812934 -0.017325856 0.018429153 -0.06283104 0.06847679 -0.0105514005 0.018870907

conv3.bias f4 [32]
00000000: d6f5 cd3d 1d66 323c 5157 243c 67ee 143d
00000010: 1819 853d e3f3 883b 7e65 923d 66b4 a339
00000020: b6f5 743d 1f5f afbc 9268 59bc 5f35 a339
00000030: 8097 d73d 0b0b 62bd 94c0 5c3d 278f 593b
00000040: 7a1d 703d 1628 d83d d76e af3b 6cb9 aa3d
00000050: 2d71 7f3c 2183 ad3d a24d 1ebd c5b0 c93d
00000060: 50b3 94bc b00b bcb7 e630 683c 162a 793d
00000070: 8fd8 8ab2 10c2 613d 2f17 f63c 03fe ebb0
0.10056655 0.0108886035 0.0100305835 0.03636017 0.06498927 0.004179464 0.07148264 0.0003122419
0.05980464 -0.021407662 -0.01326956 0.00031129547 0.10526943 -0.055186313 0.053894594 0.0033196898
0.05862186 0.10554521 0.0053537893 0.08336148 0.015590948 0.084722765 -0.038648255 0.09848169
-0.01815191 -2.2416789e-05 0.014171815 0.060831152 -1.6163794e-08 0.055116713 0.030040352 -1.7170695e-09

conv4.weight f4 [64, 32, 3, 3]
00000000: 081c b5bc 30ba 2bbd f08c 46bd 417a 81bd
00000010: bf44 61bd d825 ab3b b5ef d33b dcfb cd3d
00000020: 3b2e 613d ce53 c23c f010 41bc fa43 0cbd
00000030: cbe6 4a3d 07e1 a5bc 3b38 48bd e226 813d
00000040: 7b70 243c 4dec c6bc 44e5 8a3c 9cb9 c73c
00000050: 4143 7cbb cc74 173d e08a 3b3d bbd4 f9bc
00000060: 36ed 363b fc30 d63c a6ee e33c 313d a5bc
00000070: 78fd 26bd a879 15bd 847e 25bd 28e7 7f3c
00000080: d6d7 513b 3e6e c53c 2b89 1abd 201a 2dbd
00000090: 0af9 16bd 1738 81bd 1d3f e4ba bea3 eb3a
000000a0: fd23 f23b 56ba e13c 4718 183d 8522 f03c
000000b0: 93a4 32bc cccc 913d 9f93 ad3c 3bd1 073d
000000c0: 43f6 da3c a396 8d3c be07 4a3d 1473 c63c
000000d0: d564 3bbd 1475 d73c 6e6e 483c 6d85 a03c
000000e0: 3f36 8bbc 755c 21bd c63e 7cbd 42d2 2dbd
000000f0: e176 8e3c 9936 8e3d 2139 573d 5c4e ae39
00000100: 1510 003a 6f41 293a a501 7139 05fa 9639
00000110: 6916 ca39 b827 2a39 1cd7 70b8 acca 8839
00000120: 347e 57bc 7c36 553d b380 a03d 544f e0bc
00000130: ad72 573d 2e33 d43b 9048 a3bc f326 56bd
00000140: 5031 55bc 2339 b7bb 9061 07bd 9532 713c
00000150: d12b cc3a 5263 1d3c 316a 393d 4ea5 413c
00000160: ab4d 69bb efdd a6bc b6f4 bfbc b4f2 2cbd
00000170: 8635 03bd 6afd 06bd 6e16 0fbc a871 90bc
00000180: ffdb 783b 5bad 873c 6f87 c53c 1b6d 463b
00000190: 6a97 273b 2f04 523b 4014 313a 3f29 02b9
000001a0: 886b 2e39 6951 77bb 8ecc f5bb 6e51 c4bb
000001b0: d5db 283c 264c 81bd de20 b0bd e03e 043c
000001c0: 1cc5 a2bb fd89 40bd ed36 9a3c f8b1 613d
000001d0: 24f4 6d3d e3cc 8b3c 86a9 1d3d 2bff 9b3d
000001e0: 1e12 3c3d d5ed 9bbc 8ab0 a73c 4a0a dc3c
000001f0: 635a aebc 6c69 0bbd 35fc 5cbb 0252 013d
00000200: 27e6 8ebd 2730 bbbc 8d06 e43c 9d5b 153d
00000210: 0ab3 a13d f800 9a3d dd42 e13d 18ad 233c
00000220: ef96 0a3c 223d 273c 6fc6 9b3b 2bb7 3f3b
00000230: 9fb5 813b c24f c3bb 5034 66bc 842e 2fbc
00000240: 82bb d1bb 5800 38bd 61e4 903c aed5 4c3d
00000250: 593f 053d 2bae a9bb b709 35bd 9e51 89bb
00000260: 2740 d1bc 3cd2 babd 0299 3e3c bffa 6dbd
00000270: 6e49 2cbd 67ae 133d c91e ee3c 7d9c 803d
00000280: a056 db3d a245 d93d 3801 813d e242 d9bc
00000290: 9e38 993b 2657 0cbb 6221 3dbb f72c 123c
000002a0: d57f 7fbd 06ce ebbc d9f9 86bd 8d79 693d
000002b0: 97af 90bc 0ba7 f33b 000d 8e3d af96 11bd
000002c0: 4e4b 313d 01a4 e73c 4998 293c ccff 82bd
000002d0: 67d8 eebc 090b d2bc f1ae dabc a599 a9bc
000002e0: 4fac 5cbc fc89 52bc 8eaa 7c3c 8f8f e53c
000002f0: 4cef ef3c 44e2 63bd 5ee9 acbb 0791 92bd
00000300: 1e4b 613c 6f03 4b3c d4ff 613d f71d 9f3d
00000310: 2a3c 8c3d 0ee0 623c 5636 85bc 5e4e cbbc
00000320: 2092 0abd b583 9cbc 2711 d8bc 88aa 9bbc
00000330: 8615 183d b692 023c a9db 78bc de1b 9bbd
00000340: eb57 c43c fede e3bc 44e4 a8bc 4267 273d
00000350: 3876 70bd 9aae a9bc 673a 623d d146 953d
00000360: 8624 863d d25a 773d 51b5 1b3b 87db 1dbd
00000370: 1444 923b 221f e0bc 3dd3 55bd 26f3 abbc
00000380: e711 70bd 76f0 b435 4d8e 4136 385c df35
00000390: 23f4 9335 9079 b035 228f 2835 280c 2c31
000003a0: 9077 cfad c7f9 0a32 e31b 87bc 155d 8b3d
000003b0: c775 733d bb9f e33c 5024 30bb c84b 30bc
000003c0: 6899 debc e6c6 5cbc e7a8 cebc 766a a43c
000003d0: a0f7 0fbc 3b71 20bc 25ea 96bc c2cb 0b3d
000003e0: 911e c9bb a2e2 df3c 0fd3 d63d 5940 ec3c
000003f0: fba6 8801 2f19 0110 b48c c116 d62f 1d01
-0.022108093 -0.04192561 -0.048474252 -0.06322146 -0.054997202 0.005223017 0.0064677843 0.10057804
0.05497573 0.023721602 -0.011783823 -0.034244515 0.049536508 -0.020248903 -0.04888175 0.063062444
0.010036583 -0.024282599 0.016955025 0.024380498 -0.0038492235 0.03697662 0.04578674 -0.030496946
0.0027912385 0.026146404 0.027823757 -0.02017078 -0.04076907 -0.036492974 -0.040403858 0.015619077
0.0032019517 0.02410042 -0.03772847 -0.042261243 -0.036858596 -0.063095264 -0.0017413829 0.0017977876
0.007389544 0.027554672 0.037132528 0.029313335 -0.010903495 0.0711914 0.021188555 0.033158522
0.026728755 0.017283743 0.04932379 0.024224795 -0.045750458 0.026300944 0.01223336 0.019594872
-0.01699364 -0.039394815 -0.061583303 -0.042436846 0.01739067 0.069440074 0.052544717 0.00033246248
0.0004885209 0.0006456589 0.00022984164 0.0002879651 0.0003854514 0.0001622726 -5.7420795e-05 0.00026090944
-0.013152648 0.052053913 0.078370474 -0.027381577 0.052599598 0.0064758277 -0.019932061 -0.05228324
-0.013012245 -0.005591528 -0.033052027 0.014721532 0.0015577023 0.009606199 0.045267288 0.011819197
-0.0035599272 -0.020369498 -0.023432117 -0.042223647 -0.032033466 -0.03295652 -0.008733375 -0.01763232
0.0037972925 0.016562155 0.024112431 0.0030277434 0.0025572428 0.003204595 0.00067550316 -0.00012413131
0.00016633992 -0.0037737733 -0.0075011915 -0.0059911525 0.010306318 -0.06313352 -0.08600019 0.008071631
-0.004967345 -0.047006596 0.018825019 0.055101365 0.05809416 0.017065471 0.03849175 0.07617029
0.045915715 -0.019034306 0.020469923 0.026860375 -0.021283334 -0.034036085 -0.0033719663 0.03157235
-0.06977492 -0.02285011 0.027835155 0.036464322 0.07895477 0.07519716 0.10999081 0.009989999
0.008458837 0.010207446 0.0047538797 0.0029253464 0.0039584185 -0.0059604356 -0.014050558 -0.0106922425
-0.0064005265 -0.044922203 0.017687025 0.05000847 0.032531116 -0.005178233 -0.044198718 -0.0041906377
-0.025543286 -0.0912213 0.01163316 -0.05810046 -0.042062216 0.036054995 0.029067414 0.06279848
0.10709882 0.106089845 0.062990606 -0.02652115 0.0046759387 -0.002141425 -0.002885901 0.008921853
-0.06237777 -0.028784763 -0.065906234 0.057000685 -0.017661853 0.0074356846 0.06936073 -0.035544094
0.043284707 0.028276445 0.010351249 -0.06396446 -0.029155923 -0.025640028 -0.026694747 -0.020703146
-0.013468816 -0.012850281 0.015421523 0.028022556 0.02928891 -0.055635706 -0.005276843 -0.07156568
0.0137508195 0.012390955 0.055175617 0.07769387 0.06847413 0.013847364 -0.016261261 -0.024817642
-0.033830762 -0.019105772 -0.026375366 -0.019002214 0.0371299 0.007969549 -0.01518909 -0.075736746
0.023967704 -0.027816292 -0.020616658 0.04086996 -0.058706492 -0.02071314 0.055231478 0.07288898
0.06549935 0.060389347 0.0023759196 -0.038539436 0.004463682 -0.027358595 -0.052203406 -0.020989966
-0.058610823 1.3481028e-06 2.884207e-06 1.6641634e-06 1.1023407e-06 1.3148401e-06 6.279316e-07 2.5036204e-09
-2.3586272e-11 8.08945e-09 -0.01649279 0.06804863 0.059438493 0.027786126 -0.0026877113 -0.010760255
-0.02717276 -0.013475155 -0.025227023 0.020070296 -0.008787066 -0.009792621 -0.018422196 0.034129865
-0.006137677 0.027329747 0.10489475 0.028839277 5.0198115e-38 2.5460165e-29 3.1269628e-25 2.8870666e-38

conv4.bias f4 [64]
00000000: 6692 583d 462d 223d 54c8 0e3d 2938 fb3c
00000010: ef3a df3c 7172 0e3d be49 13bc d975 70bb
00000020: aa65 103c b336 c2bc caf3 43b8 a57b 673d
00000030: f905 833d 13dc 283d d075 3e3c 0809 6fbc
00000040: a5cc 563d 4170 503d ea3e 0abd f912 863c
00000050: 6851 e03c 3c41 193d 6f01 313d 7a2f 31bb
00000060: 287f e63b 7920 3faa 41ea 383c 44c9 f33c
00000070: 6e3f 9cbb 294e 533d b8ff c13b 5843 613c
00000080: 3db2 213c 63af 27bb 6877 7d3d 9427 3cbc
00000090: 9323 d13c 849a 92bc 8f52 553d bc92 82b6
000000a0: ab58 b6bb 17f6 963d 5870 2f3d a735 4c3d
000000b0: 3d6f 063d 9942 6e3d 87f1 eb3c 2757 14bd
000000c0: acf8 483c 9383 8c3b d64a 8bb7 edca c23c
000000d0: 038c 653d 5048 12bd e694 d6bb a82a 653d
000000e0: 5642 2b3c 2968 663d 5f13 663d b7c4 b93c
000000f0: 196e 4d3c 4771 24bc 0046 763c 9b9f 42bd
0.05287399 0.039593957 0.034859017 0.030666428 0.027249781 0.03477711 -0.0089897495 -0.0036691336
0.008813301 -0.023707723 -4.671867e-05 0.0565144 0.063976236 0.041225504 0.011624768 -0.014589556
0.052441258 0.050888304 -0.033751406 0.016366469 0.027382568 0.037415728 0.043214258 -0.0027036355
0.007034201 -1.6975474e-13 0.011286319 0.029759057 -0.0047683036 0.05158821 0.0059203766 0.013748966
0.0098691555 -0.0025586716 0.061881453 -0.011484046 0.025529658 -0.017895944 0.052080687 -3.891384e-06
-0.0055647693 0.07371157 0.04283175 0.049855854 0.03282093 0.05816898 0.028801693 -0.036215927
0.012266319 0.004288146 -1.660494e-05 0.023778403 0.05604173 -0.035713494 -0.006548512 0.055948883
0.010452827 0.05625168 0.056170817 0.022676809 0.012538456 -0.010036773 0.015031338 -0.047515493

fc1.weight f4 [32, 2304]
00000000: 9208 de3b dfa7 40bb a097 7fbc 42ec efbc
00000010: 046d 51ba b591 953c e8ec 583b 235a 36bc
00000020: 69f6 67bb bf8e 103b 83a9 99bc 66bb 983b
00000030: 8818 593c 3574 fd37 03fb 983c cf31 983c
00000040: 8ca9 5d3c 6fd6 133c b3bb f3bb 6c64 38bc
00000050: 9c8e cfbb 1e38 2abc 75f5 b5bb 3947 86bc
00000060: 8ef1 03bc f09e 91ba e2c2 2ebc 8fc2 ca3b
00000070: 027f ea3a cd05 873b 1c52 b6bb 75ee 053c
00000080: f503 673b 1062 83bb 5444 f9bb 7c22 3a3c
00000090: 0235 1e80 50fe f181 a34f de00 f7c9 e6b8
000000a0: 2524 8839 0d8d 0a39 ca03 7a01 2ef6 0f01
000000b0: 0059 4c00 b995 0781 1128 8f01 9ecb 05b9
000000c0: dcf8 e880 d24d c081 17f3 fa81 480b bd01
000000d0: ba82 8581 7461 8037 44ef 2f01 45a9 7000
000000e0: 8141 8781 f96c 0702 699e f581 211b 2532
000000f0: 8e21 f281 807e b201 4fbf 8100 9429 6b81
00000100: 0e2c 9a01 1de4 a981 608b 5081 83c0 8501
00000110: f9b2 5681 5bd4 ac80 cc49 2d80 c338 f981
00000120: 44cd 2a3c 9d29 b9bc 53eb a93b 7eb7 8dbc
00000130: ec46 753c 312a 903a ff82 c6bb 65a4 acbb
00000140: b194 1d3c 5ebc 013c b63f 993b 89a7 4fbc
00000150: ff23 8abb f676 48bc 8bc1 463c 9e4a 86bb
00000160: c977 463c edcf 9abc b526 fe3b 7d26 323c
00000170: ba34 bcbb 5f02 9a3c b329 25bc f6a2 72bc
00000180: 2430 133c 2a8d 893c 4bfa 3ebc 1b4f 733c
00000190: b283 5bbc 09ce 1f3c 550a 85bc f12d bf3b
000001a0: 72f2 3b3c 81f4 853b 2642 6e3c 8953 47bc
000001b0: 0d61 78bc 1510 0c3b 3e5a 2839 9e1c b7bb
000001c0: 50f9 893c 9052 8d3c a779 8bbb 3ad2 36bb
000001d0: c2d5 61bc c85f 12bc 69d3 723c 6965 97bc
000001e0: 1480 573c 3817 25bb 451c a93c 03ff 81bc
000001f0: 8861 be3c a098 2f3c 2824 89bc 09df 983b
00000200: edfd 8ebc 57a6 a0bc fb70 fb3b a1b1 9ebc
00000210: 544a 28bc 271a b73a c0f4 973c 3502 b63b
00000220: 1889 e43a 3388 483b c8c2 403b 7db6 513b
00000230: 8e9a e9ba 505a 10bc 0686 6d3c f38a e73b
00000240: d544 033b 1b10 3fbc 517d e63c a059 383c
00000250: 2d49 ef3b fecf f6b8 f5b7 90bb 144a c8ba
00000260: b15f 4a3c 21f4 97bc 2ad4 a0ba 2d43 82bc
00000270: f6da 533c 2d44 a8bc 50b0 80bc b385 af3b
00000280: 8cf5 0a3b 6fcb 79bc 0c30 10bb d950 d2ba
00000290: b4b9 87bb 8f69 0a3c 13a5 4e3c 169a 96bb
000002a0: 2574 5e3b 087b b5bb db1e 04bc bf9d fbbb
000002b0: 91c1 783c 880d f13b ef1a 25bc 256d 8b3c
000002c0: c685 b3bc b5d6 61bc 1bcd e339 3a8e cbbb
000002d0: d4d5 2c3b edce d93c da1d 0fbc 1851 903c
000002e0: ad92 6f3b 10f0 8c3c a887 dcbb e53d debc
000002f0: 1116 08bd c885 b1bc 9a64 473c 82ad 253c
00000300: 5427 873b 5f74 d43b 37d9 26bc 9ffb 9c3c
00000310: de95 ad3c dc1f 53bb 3ca5 4e3c 5398 d2bc
00000320: 72cc 7d3a 37d8 98bb 20bf d4bb 2e5c cf3c
00000330: 4c01 183c ebea 7dbc 8fac 6ebb ae1d 01bc
00000340: b7d7 4e3c 9b7c 80bc 22d0 b23c a8d9 02bb
00000350: 407b 87bc 7048 57bb 0da0 703b 898a 143c
00000360: e945 953c f556 f5bb 57e7 58b8 968c 8cbc
00000370: f871 953b 30e3 243c 92fe b0bb 9338 dab9
00000380: 8ff1 c0bb c9b7 23bc e00b cf3c f958 52bb
00000390: 2773 e8bb 5582 2b3c da0e 3cbc 037f 5d3b
000003a0: 33b6 1cbc 6533 d8bb 532a 563c 8a9d 1d3c
000003b0: db2e a23c 7799 94ba 7203 a5bb adf0 07bc
000003c0: 50cc 41bc 94c5 a93c 60f1 2cbc b41a be3c
000003d0: ade2 593c 4547 0c3c b49e 92ba a05e 82bc
000003e0: df70 8a3c 0729 153c 2179 23bc 4a0a d93b
000003f0: 3508 a8bc 0c0b 3b3c 0bc7 b5bb 6acb 09bc
0.006775924 -0.0029396934 -0.015600115 -0.029287461 -0.0007988962 0.018257955 0.0033100192 -0.011129889
-0.0035394675 0.002205774 -0.018757587 0.0046610115 0.013250478 3.0214063e-05 0.01867438 0.018578438
0.013529193 0.009023293 -0.007438147 -0.011254411 -0.006334139 -0.010389356 -0.0055529424 -0.016391383
-0.008053197 -0.0011109989 -0.010666581 0.006187744 0.0017890634 0.0041205646 -0.0055639874 0.008174528
0.0035250161 -0.0040094927 -0.0076070223 0.011360761 -2.77408e-39 -8.889434e-38 2.0416048e-38 -0.000110048735
0.0002596687 0.00013213251 4.5920467e-38 2.6441577e-38 7.011425e-39 -2.4903005e-38 5.2587396e-38 -0.00012759722
-2.1395109e-38 -7.064133e-38 -9.2184313e-38 6.9443823e-38 -4.904407e-38 1.530417e-05 3.2314088e-38 1.0346298e-38
-4.968516e-38 9.949507e-38 -9.0226094e-38 9.6104324e-09 -8.894491e-38 6.556839e-38 1.1915408e-38 -4.3192514e-38
5.663388e-38 -6.240812e-38 -3.8303563e-38 4.9132725e-38 -3.9434e-38 -1.5871884e-38 -4.15907e-39 -9.1549603e-38
0.010424916 -0.02260285 0.0051855235 -0.01729941 0.014970522 0.0010998902 -0.0060580964 -0.005268621
0.00961797 0.007918445 0.0046767844 -0.012674221 -0.004215717 -0.012235394 0.012131105 -0.0040982505
0.01211352 -0.018897975 0.007756079 0.010873434 -0.00574359 0.018799959 -0.010080743 -0.014809361
0.008983646 0.016790945 -0.011656354 0.014850403 -0.013398098 0.009753712 -0.016240278 0.005834334
0.011471378 0.004087985 0.014542138 -0.012165912 -0.015159857 0.002137189 0.00016055346 -0.005588128
0.016842514 0.017251283 -0.0042564454 -0.00278963 -0.013783874 -0.008933969 0.014820912 -0.018480973
0.013153095 -0.0025190841 0.020643363 -0.01586867 0.023239866 0.010717541 -0.016740873 0.0046652597
-0.017455066 -0.019610567 0.0076733804 -0.01937181 -0.010271627 0.0013969586 0.018549323 0.0055544623
0.0017435877 0.003059876 0.0029412974 0.003199964 -0.001782255 -0.008810595 0.014497286 0.0070661246
0.002003004 -0.011661555 0.028135927 0.011251837 0.0073024244 -0.00011768936 -0.0044164606 -0.0015280866
0.012351916 -0.018549027 -0.0012270261 -0.015901173 0.012930622 -0.020540321 -0.015709072 0.0053565144
0.0021203486 -0.015246256 -0.0022001294 -0.0016045823 -0.0041420106 0.008448019 0.012612599 -0.004596005
0.003394374 -0.005538348 -0.008063997 -0.007678717 0.015182869 0.0073563494 -0.010077222 0.017019818
-0.021914374 -0.0137841 0.0004344963 -0.006212023 0.0026372569 0.026587928 -0.0087351445 0.017616794
0.0036555931 0.017204314 -0.0067300387 -0.027129123 -0.03322417 -0.021670237 0.012169981 0.010112168
0.0041245613 0.006483599 -0.010183624 0.019162951 0.021189626 -0.0032215035 0.012612637 -0.0257074
0.0009681649 -0.0046644467 -0.0064925104 0.02531251 0.009277653 -0.015497903 -0.003641877 -0.007880611
0.012624673 -0.015684417 0.021827761 -0.001996616 -0.016538262 -0.0032849573 0.0036716491 0.0090662325
0.018221812 -0.0074871727 -5.1713865e-05 -0.01715688 0.0045607053 0.010063931 -0.005401441 -0.0004162235
-0.005888171 -0.009992548 0.025274217 -0.003209649 -0.0070938054 0.010468085 -0.01147815 0.0033797629
-0.009564924 -0.0065979236 0.013071614 0.00962008 0.019797733 -0.001133724 -0.005035811 -0.008297128
-0.011828497 0.020724095 -0.010555595 0.023206092 0.013298673 0.008561914 -0.0011186213 -0.015914261
0.016899524 0.00910402 -0.00997761 0.006623541 -0.020511726 0.011416208 -0.0055474094 -0.008410314

fc1.bias f4 [32]
00000000: d6eb 313c 7392 473c 8cb8 b13c 2647 68bc
00000010: 1e76 efbb 8421 0c3c 9780 36bc 1938 893b
00000020: 0153 89bc 8a14 743c 6531 0fb2 fa94 123c
00000030: 79fb 59ba 89af 9c3c a976 21bb 8a92 8b3b
00000040: 445b a3b7 1188 0f3b 633e 6c3c 9b90 013b
00000050: d790 ceb5 9dec 26bc 3c00 63bc 0bbe 2339
00000060: fd22 843c 0cf6 9f3b 53b1 263c 1131 213c
00000070: 2dac 78ab 5d32 8c3c 6518 583c a34a 80bb
0.01085945 0.012180912 0.021694444 -0.014177119 -0.007307782 0.008552913 -0.011139057 0.0041875956
-0.016763212 0.014897475 -8.3349265e-09 0.008946652 -0.00083153654 0.01912667 -0.0024637377 0.004259412
-1.9473613e-05 0.002190117 0.014419171 0.001977003 -1.539035e-06 -0.010188249 -0.013855036 0.00015615688
0.016129965 0.004881626 0.010174113 0.0098383585 -8.834624e-13 0.017113859 0.01318941 -0.0039151474

fc2.weight f4 [64, 32]
00000000: 32ba 60bd ff48 353e d19e 1cbe 475e 0e3e
00000010: f103 0bbe 7933 2c3d 2f8a 173d 1675 8eba
00000020: f98c cc3d 7cdb a9bc 3a90 9101 fa2b 27bd
00000030: 0dd2 02bd 98fe bd3d 28c0 ffbc 0c25 a43c
00000040: 3ac6 9600 23c1 19be 0966 fa3d bdee e0bd
00000050: 04ba a900 2d31 b33d 5c8c b2bd de6d 673c
00000060: 3099 01be 73f2 47bd f195 fbbd acbc c33c
00000070: 2820 8401 03b3 013d f0a1 683b 769f 2f3e
00000080: d381 b23d f04e e2bd 6096 e83d 8867 e8bd
00000090: 5e3f 83bd 2740 473d 1cad c7bc 5ddb 3239
000000a0: 3560 d23d 9fed 821e 59a0 8581 8506 18bd
000000b0: 9765 5cbd 1ceb 043e cc20 fd3d 7e89 823b
000000c0: 0fe1 3001 e67c 24be 99ef c13c d2f6 383d
000000d0: ef60 b581 9642 8f3d 597d cb3c 7b29 213c
000000e0: 1401 c93d c9b3 7bbc bee1 23be 3d44 3abd
000000f0: 9f9a 8881 9033 343b 5e9d 7e9f 8a0d e1bc
00000100: a93b 803c 0cbd c23d 3beb 223c 63dd ccbd
00000110: c7a7 11be 875c db3d 55b6 20be 4321 0b3a
00000120: 20b5 3e3c 972a c6bc d72d a181 6104 9a3d
00000130: 1578 283b 71f1 aa3c dac1 cabd a192 293d
00000140: 598e 7f80 c8c2 be3c 18ac cf3a 60ac 163e
00000150: e89f db01 b37f 543c 3060 7e3d c263 c3bd
00000160: b9c2 d33d 7bcc 263c 3e96 073d 82b2 553e
00000170: a3f4 9001 74b5 9b3d c2e9 c7b8 daf1 bd3d
00000180: 1d4a 0a3e 7a52 ff3d 6ff1 0a3e 5d67 febd
00000190: 1108 4b3e fab2 09be 530a 2cbd 3c0d c4bb
000001a0: c124 043e cb93 443b ed06 9e81 f3ba 093e
000001b0: 4f5d e53c 736e 773b db28 1abe dda4 37bc
000001c0: 98c3 d301 a57e 3f3e 2641 08bd 1a55 14be
000001d0: 0587 a801 1514 60bd 6e1a 9abc 1ac7 bc3d
000001e0: 0461 203d b190 113e 3c95 4fbd 6aa0 08be
000001f0: 5ac7 b181 1ca0 f03b 66be a6bb f608 0dbe
00000200: 6c95 a03d e376 8d3c 838b 1f3c 31a7 b3bd
00000210: bfac 60bd 68fc 0bbd 51ff 663c 282a 0d38
00000220: dc6e 303e 18a7 0637 c017 a381 7f5f 0b3c
00000230: b074 4f39 e061 113b 2211 223d 7df1 02bc
00000240: 0ed7 a281 a602 3f3d 1d89 173d 133f 133e
00000250: 3432 9981 b098 31bc ff43 cc3b 1b3a 5fbb
00000260: 7991 8e3d f90d c1bd 788b 4b3b 5b0e bcbd
00000270: 6acb 9081 f3dd 4bbd df2f ac01 584c 7abd
00000280: 4a00 eebd 7888 e63c a1fb 443d 1b47 73bc
00000290: c6d6 453e e40f 9fbd d68d 9b3d 0bfa cb37
000002a0: 55e5 15bd 7fa4 853c 7696 a380 43a4 1ebe
000002b0: a042 4ab1 05b6 6ebd e62a ddbc 2a5c cfbb
000002c0: 02be cc01 ecf0 f2bd 0a0f f3bd 50fd bebd
000002d0: 83dd 5500 3e74 f7b6 ca4b 833d 8ba9 24bc
000002e0: bafa 963d fd22 df3c 80ca c3bd 0b97 273d
000002f0: b094 9681 6ba4 35bc 9895 c0b8 5407 20be
00000300: 8e47 0fbc 351b 8b3c 84aa f03c 461b eb3c
00000310: 5f2f 0cbc e5ee 24bc d89e 1fbb c0fd ec38
00000320: ad9e 0ebc 25a1 5e38 c939 9d81 05af bb3c
00000330: 1378 4838 6084 4dba 076e beb9 c4ac 803c
00000340: d78a 8901 4c36 1bbc 67d9 c73c 93d8 17bc
00000350: 4c4b 8301 fdd0 9638 2894 f43a 8410 1f3c
00000360: b6de 43bc 34cb 2abc 5993 b0bb 1927 bd3c
00000370: dde6 9b00 17ef 02bb ca84 8e38 979b b73c
00000380: 76c0 cfbc 504c 443e d873 023d 0d8b 183e
00000390: 8ce1 0cbc 9a26 06be 0d44 f93d 8382 543b
000003a0: c2bf 26be 48d1 7b3c ea6f a281 a69e 9abd
000003b0: c51c e63b fac9 46bd c26f 8bb7 d71c 9e3c
000003c0: 18d3 4480 7a78 e9bd 4134 6dbd 3002 bcbd
000003d0: ca1c 8f81 b321 81bd 521a 9e3b 3104 3d3d
000003e0: 2019 18bd df25 c8bd 4ea0 24bd 4b4d 483e
000003f0: cee8 e600 119e 223e d6ef ab35 32e8 cf3d
-0.05486507 0.17703627 -0.15294959 0.13903151 -0.13575722 0.042041276 0.036997017 -0.0010868635
0.09987826 -0.020734541 5.347154e-38 -0.040813424 -0.0319386 0.092770755 -0.031219557 0.020037197
1.3846435e-38 -0.15015082 0.12226493 -0.10983036 1.5586929e-38 0.08749614 -0.08718178 0.0141253155
-0.12656093 -0.048815202 -0.122844584 0.023893677 4.8535284e-38 0.03166486 0.0035496913 0.17150673
0.08716168 -0.110502124 0.11356807 -0.11347872 -0.06408571 0.048645165 -0.024374537 0.00017057122
0.10272256 1.3862563e-20 -4.908657e-38 -0.037115593 -0.05380782 0.12980312 0.12359771 0.0039836755
3.2487566e-38 -0.1606327 0.02367382 0.04515726 -6.662799e-38 0.06995122 0.024840044 0.00983655
0.09814659 -0.015362688 -0.16004083 -0.045475233 -5.018038e-38 0.0027496554 -5.3916763e-20 -0.027472276
0.015653448 0.09508714 0.009943779 -0.10003164 -0.14224158 0.107110076 -0.15694554 0.00053073856
0.011639863 -0.02419023 -5.9207836e-38 0.075203665 0.002570634 0.020867081 -0.099002555 0.0413996
-1.1714173e-38 0.023286238 0.0015844135 0.14714193 8.067735e-38 0.012969899 0.06210345 -0.09540512
0.10339875 0.010180588 0.033102266 0.20868877 5.324828e-38 0.07602969 -9.5326e-05 0.09274645
0.13504834 0.12466903 0.13568662 -0.12422059 0.19827296 -0.1344718 -0.042002033 -0.005983023
0.12904646 0.0029995318 -5.804997e-38 0.13450222 0.027998595 0.0037755042 -0.15054648 -0.01120874
7.778982e-38 0.18700655 -0.033265255 -0.14485589 6.1907197e-38 -0.05470665 -0.01881143 0.09217663
0.03915502 0.14215352 -0.05067943 -0.13342443 -6.5305587e-38 0.0073433053 -0.005088615 -0.1377295
0.07841 0.017268604 0.009737852 -0.087721236 -0.054852244 -0.03417626 0.014098958 3.365628e-05
0.1722979 8.025927e-06 -5.9910823e-38 0.008506655 0.00019784528 0.0022183582 0.03956712 -0.007992146
-5.981799e-38 0.046633385 0.036995996 0.1437953 -5.627536e-38 -0.010839626 0.0062336917 -0.0034061733
0.069613405 -0.09426493 0.0031058472 -0.091824256 -5.318913e-38 -0.049772214 6.3251513e-38 -0.061107963
-0.11621149 0.028141245 0.048091535 -0.014848496 0.19320211 -0.07766703 0.075954124 2.4315921e-05
-0.03659566 0.01631379 -1.5023161e-38 -0.15492348 -2.943274e-09 -0.058279056 -0.026997995 -0.0063281255
7.521041e-38 -0.118623585 -0.11868103 -0.09325659 7.88548e-39 -7.374706e-06 0.0641094 -0.010050188
0.07372041 0.027238363 -0.09560108 0.04091553 -5.5314654e-38 -0.011086564 -9.1831374e-05 -0.15627795
-0.008745087 0.016980747 0.029378183 0.028699528 -0.008556216 -0.0100667225 -0.0024356153 0.000113006216
-0.008704823 5.3079002e-05 -5.775561e-38 0.022910604 4.7795544e-05 -0.0007839855 -0.000363216 0.015707381
5.052508e-38 -0.009473395 0.024395658 -0.009267944 4.8229846e-38 7.1914845e-05 0.0018659877 0.0097085275
-0.011954954 -0.010424424 -0.005388659 0.023089932 1.431732e-38 -0.0019978934 6.7958215e-05 0.022413058
-0.025360327 0.19169736 0.03184876 0.14896794 -0.008598696 -0.13100663 0.12171183 0.0032426424
-0.16284087 0.015369721 -5.966999e-38 -0.07549791 0.0070224726 -0.048532464 -1.6622133e-05 0.019300861
-6.32054e-39 -0.11399932 -0.05791116 -0.09180105 -5.2571214e-38 -0.06305256 0.004824915 0.046146575
-0.037133336 -0.09772848 -0.04019194 0.19560735 2.1205679e-38 0.1588061 1.2810294e-06 0.101517096

fc2.bias f4 [64]
00000000: 3367 1b3d fef1 e13d 80a3 413e 08ad d63c
00000010: 457c b2bb be8b db3c c9a6 043d 1421 9d3c
00000020: 454a b23c 0d55 bfaf f9df 0a3d ecf3 573c
00000030: 7a21 58bd 018b 82bc a2ef 3d3c aa52 5f3c
00000040: dc4d 10bc 739a 313d 98a1 f83c 4133 2d3e
00000050: b826 2a3e 127f 093d 3a4c a73d f7e0 bd3c
00000060: ae89 a53d 8c0e 843c 6940 bc3b d894 ad3c
00000070: f44f 07bd 6bef d23c 61c9 983d b82d 64bd
00000080: eb9e bf3d ccf7 a2bc 0d87 6d3c c921 e53c
00000090: 97f6 373e 02f8 edbc e3f1 afbc fff6 0b3e
000000a0: f47e 97a4 58f5 0a3e eb52 453e 92d5 b53d
000000b0: de25 1b3d eab1 f2bb c5a0 78bc 8cbb 423d
000000c0: 3b16 17bc 67c1 fb3d 60bf 47bd e87c 873c
000000d0: 8c58 ddbc 9aea 253e f175 a4bc b763 d93c
000000e0: 0ef8 db3d 81c8 db3d 46e2 1abc 7cd5 00bb
000000f0: 0a87 aa3d 5aea 243e 697e 09bd e167 0f3d
0.037940215 0.110324845 0.18910027 0.026205555 -0.005446943 0.026800033 0.03238562 0.019180812
0.02176393 -3.480313e-10 0.033905003 0.013180714 -0.0527663 -0.015935423 0.011592777 0.0136305485
-0.008807626 0.043360185 0.030350491 0.16914083 0.16616333 0.03356845 0.08168836 0.02317856
0.08082901 0.016120218 0.005744983 0.021189138 -0.033035234 0.025748929 0.07460285 -0.055707663
0.09356483 -0.01989355 0.014497531 0.027970212 0.1796516 -0.029048923 -0.021477645 0.1366844
-6.570088e-17 0.13570154 0.19269912 0.08878626 0.03787791 -0.007406463 -0.015175049 0.04754214
-0.009221609 0.12292748 -0.048766494 0.016539052 -0.027019762 0.16202775 -0.02007577 0.026536806
0.10740672 0.107316025 -0.009453362 -0.0019658497 0.08326538 0.16105023 -0.03356782 0.035011176

fc3.weight f4 [2, 64]
00000000: 8bf6 a73d 2339 1a3c c312 db3d efc5 543a
00000010: d27a 27bd 4423 f4bd 6286 353d eeab ae3d
00000020: 64fa bdbd e54d 4035 3edc 753c b6b3 213e
00000030: 26db 203d 50a9 993d 9deb e2bc a8f0 1dbd
00000040: 76bc b2bc a396 fb3d 1410 2d3d dc47 02be
00000050: 60b2 0ebe 7b74 383d 4bd6 453d ed87 2c3c
00000060: f075 c13c 89a2 413d 1c26 fb3b e30c 04be
00000070: c63d b23d 1cf8 143d c71a c7bd a65c b1bd
00000080: 7a26 733b 3926 59bd 787c e9bc be68 0bbe
00000090: 75a1 16bb b7f1 46bd d7b3 193d c2b4 133d
000000a0: bb1a a033 5b69 e83d 34b2 923c fb66 0a3c
000000b0: 6fa5 2c3d c5c0 52bd 44cc 08bd dfdd 693d
000000c0: 4e0b 44bd 2324 acbd b3bf bfbd d35f 313d
000000d0: 6177 0e3d a28e cc3c 2afb e8bd a208 2d3d
000000e0: e5c9 cfbd ea2d 323d dc8f e03c 65ed ce3c
000000f0: 6f96 363d 9f61 b9bd 05f1 03bc 2b96 083c
00000100: ab4e 68bd 1c3e 003e 92a9 2e3d 26cf ae3d
00000110: fecf da3d 3f57 98bd b686 35bd 4e88 fcbd
00000120: 439f 613d db4d 40b5 8ec7 ed3c 933e a23d
00000130: aec2 493d 4ff2 503d 2619 e33c 0238 1d3d
00000140: e80b 4c3d 1634 19be be10 2dbd 90a9 103e
00000150: b885 893d 03ee 38bd a4da d83b 8095 aebd
00000160: 2922 c73d e006 f3bd 1b26 fbbb d5cf a73d
00000170: 83d5 d63d 5b8f 17bd c7a3 04be 75ae eb3b
00000180: 338e 08bd 1136 273d 31c8 dd3c 68b3 51bd
00000190: 77bf 15bd cb0a e43c 1389 d8bd 5f7d 7b3d
000001a0: 681a a0b3 cf37 db3d d04c 2bbe ad03 efbc
000001b0: 1854 04be ba03 ae3c e4f0 0b3d 9e69 6dbc
000001c0: cd4c d6bb 9889 c6bd bbb7 cc3d 8532 f5bc
000001d0: 186f 6e3c 8bf6 cc3d 4fc5 52bd cff7 1fbd
000001e0: 3d4e 093e e9b2 af3d 6c2d 08bd a504 8cbd
000001f0: de34 c13d 7e12 de3d 3a9f c2ba 50e9 30bd
0.08201321 0.0094130365 0.10696938 0.00081166526 -0.040888615 -0.11920789 0.04431761 0.08528887
-0.09276274 7.1638925e-07 0.015006123 0.1579121 0.039271496 0.07502997 -0.02770024 -0.038559586
-0.02181838 0.12284591 0.04225166 -0.12722725 -0.13935232 0.04503296 0.04830007 0.010530454
0.023615807 0.047274146 0.007664455 -0.12895541 0.087031886 0.036369428 -0.09721904 -0.086602494
0.0037101791 -0.053014968 -0.028501734 -0.13614175 -0.002298442 -0.04857036 0.037525024 0.036061056
7.455443e-08 0.1134822 0.01790724 0.008447404 0.042149957 -0.05145337 -0.033397928 0.05709636
-0.047862343 -0.0840533 -0.093627356 0.043304276 0.034781817 0.024970356 -0.11376031 0.04224456
-0.1014593 0.04350082 0.027412347 0.025259683 0.04457706 -0.09051823 -0.008053069 0.008336584
-0.05671565 0.12523693 0.042642184 0.08535604 0.106842026 -0.07438516 -0.044317923 -0.123306856
0.055083524 -7.163887e-07 0.02902582 0.07922091 0.049257927 0.051012333 0.027721953 0.03838349
0.049816042 -0.14961275 -0.042252295 0.14127183 0.06714958 -0.04514886 0.006617861 -0.085246086
0.097233124 -0.11866546 -0.0076644546 0.08193938 0.10489943 -0.03700195 -0.12953101 0.0071924278
-0.033338737 0.040823046 0.027072998 -0.051196486 -0.03655955 0.027837178 -0.1057302 0.06139886
-7.455384e-08 0.10704004 -0.1672852 -0.029176557 -0.12922704 0.021242011 0.034165278 -0.014490513
-0.006539917 -0.09694213 0.09995981 -0.029931316 0.014552854 0.10007962 -0.0514577 -0.039054688
0.13408752 0.08579046 -0.033246443 -0.068368234 0.09433912 0.10843371 -0.0014848479 -0.043191254

fc3.bias f4 [2]
00000000: d337 a33d 3743 ab3d
0.07969632 0.083624296
