model_1.pt (torch, 407913 bytes, 14 tensors)

conv1.weight f4 [8, 3, 3, 3]
000000 b5 40 73 3e 52 01 60 3e 5d 53 50 bc df 3c 4a be
       0.23755153 0.21875504 -0.012715188 -0.19749783
000010 a1 79 d2 3c f8 d1 0d 3e a1 15 64 3c ca 1f 3c 3d
       0.025692763 0.13849628 0.013921172 0.045928754
000020 bf 5a 96 3c 96 ce f4 3d 38 e9 16 be 2d 1f 97 bd
       0.018353818 0.11953466 -0.14737403 -0.07378993
000030 37 bf 23 be 97 3e aa 3c 60 34 1a be 5e 2d d8 bc
       -0.15990911 0.020781798 -0.15059042 -0.02638882
000040 04 1c 0e 3e 34 4a 16 be 2e 32 5e bd 21 8d 41 3e
       0.13877875 -0.14676744 -0.054247074 0.18901493
000050 6a ab 08 3e 06 5e c6 bd 07 e3 0d be 63 eb 1d bd
       0.1334664 -0.09685902 -0.13856135 -0.03855456
000060 81 3c 24 be 78 fe 63 bd 40 a5 47 3e f3 1e 1a 3e
       -0.16038705 -0.055662602 0.19496632 0.15050869
000070 49 5a 9b 3d 52 cd 4c bd 2d d4 eb 3d 10 9c 27 3e
       0.0758558 -0.050000496 0.11515079 0.16368127
000080 4c d5 4d be 9e 5b 0a be 92 77 13 be 8d fd 36 3e
       -0.20100898 -0.13511512 -0.14401081 0.1787016
000090 ea 0f 50 3d f8 d1 0e 3d 0c c4 64 bd cf ca 1d be
       0.050796427 0.03486821 -0.055851027 -0.15409397
0000a0 bb 7e f3 bb 4b da b1 3d 6e 1f 16 3e fe aa 2f be
       -0.007430879 0.08684214 0.14660427 -0.17155072
0000b0 2c e2 df 3d 4a 41 f3 3d 9f a4 7a 3e 8c 0d d1 bc
       0.10931811 0.11877687 0.2447686 -0.025519155
0000c0 5d 9f 34 ba 60 cb 37 3d 5a 10 1c be b3 fc c6 bd
       -0.0006890202 0.044871688 -0.15240613 -0.09716167
0000d0 21 1e 2c be b3 f0 20 3e 8f 8b 85 bb c6 27 44 3e
       -0.16808368 0.1571682 -0.0040754746 0.19155797
0000e0 e8 43 4a be 02 a1 f7 3c 2c 89 27 3e ba a9 0f bd
       -0.19752467 0.030228142 0.1636092 -0.035073973
0000f0 6f 9a 58 be 61 53 0f 3e 06 6a 33 3e 40 bf 3e be
       -0.21152662 0.1399665 0.17520913 -0.18627644
000100 2e f8 ce bd 09 b1 13 3e 87 d3 3f 3e d9 7d e1 bc
       -0.1010593 0.14423002 0.18733035 -0.02752583
000110 2b 96 4d bd f3 93 ce bd c5 ad ff bd e4 88 e7 bd
       -0.05019204 -0.10086813 -0.12484316 -0.11305407
000120 05 99 3c be a8 db 36 3e c3 88 e0 3d 94 7b 90 3d
       -0.18417747 0.1785723 0.10963585 0.07054821
000130 a3 b0 fd 3d 38 ce b4 3d af 72 36 be 0e 5c 3d bd
       0.123872064 0.088283956 -0.17817186 -0.04623037
000140 1d c9 36 3e 8c 59 a4 bd 07 b3 e1 bd e1 79 ad 3d
       0.17850156 -0.08024892 -0.11020475 0.08470512
000150 91 9a 02 3e 05 7f a5 3d a7 73 5b 3e 7d 84 5f 3c
       0.12754275 0.08080868 0.21430837 0.0136424275
000160 27 aa 52 be 7e d0 5e 3e df 8f 46 be e1 12 55 3b
       -0.2057272 0.21759221 -0.1939082 0.0032512473
000170 43 77 11 bd 32 60 ab bd 4a 9b 60 be 60 96 16 3e
       -0.035514127 -0.08367957 -0.21934238 0.14705801
000180 31 ac 4c be d0 e4 6d 3e 0b ff 37 be b8 19 ef 3d
       -0.19987561 0.23231816 -0.17968385 0.11674827
000190 cd 57 92 3d e2 ff 3f 3e ab 69 3e be 29 86 09 be
       0.07145653 0.18749955 -0.18594997 -0.13430084
0001a0 44 b9 6a be 6d 25 cd 3d 5c cb ad bb 23 9e 6e 3e
       -0.22922236 0.10016904 -0.0053037833 0.23302512
0001b0 30 e7 18 3d c1 3d a8 bd 69 db 48 3e fa 28 49 3e
       0.037329853 -0.082149036 0.19614948 0.19644538
0001c0 49 2a d0 bb de a3 0e be 0d ed f1 3d 1e f3 7b 3d
       -0.006352697 -0.13929698 0.11812792 0.06151115
0001d0 9e c8 7a 3e 7c bf 0d 3e 4d 25 82 bd b9 86 a6 3d
       0.24490592 0.13842577 -0.06354771 0.08131165
0001e0 82 d8 82 3d 9e cb dc 3d 52 a5 cd 3d 7f 58 eb 3d
       0.06388952 0.107810244 0.10041298 0.11491489
0001f0 19 72 e2 bd 1e a7 06 be dd af bd 3d b9 66 dd 3d
       -0.11056919 -0.13149688 0.09262059 0.108106084
000200 c1 75 2c be 15 64 f2 3d b1 e1 2d be 03 68 18 be
       -0.16841795 0.118354954 -0.16980626 -0.14883427
000210 a9 cc d2 3d 5a 30 9c bc f2 d7 db 3b c5 b3 95 bd
       0.10292942 -0.019066025 0.0067090923 -0.07309679
000220 7c f4 07 3e 79 da 57 be 4f 20 44 be 33 25 27 be
       0.13276857 -0.21079434 -0.1915295 -0.16322784
000230 47 2d 28 be f6 4c 53 3d a9 22 bb 3d 2d a9 72 3e
       -0.16423522 0.051587068 0.0913747 0.23697348
000240 b8 63 6b bd 0b a2 79 3e 3a 49 77 3e 5f eb 67 be
       -0.057468146 0.2437822 0.24149027 -0.2264838
000250 b1 03 1c be 0b 19 28 be 5c ab b3 bd 23 4a 19 bd
       -0.15235783 -0.16415803 -0.087729186 -0.037424218
000260 83 26 73 bc 17 1c 49 be d6 f5 c7 3d 26 57 4f be
       -0.014840725 -0.19639622 0.09763686 -0.20248088
000270 5f 49 13 be be 83 57 be a7 9f c6 3d 6a 81 64 3e
       -0.14383458 -0.2104635 0.0969842 0.22314993
000280 4b 08 6a 3d 0e 22 78 bd 5e 11 1b be 8a 6c e6 3d
       0.057136815 -0.060579352 -0.15143344 0.11251171
000290 84 51 b2 3d 02 c1 c3 3d 19 39 4c 3d da b6 f7 bd
       0.08706954 0.09558298 0.04985914 -0.12095423
0002a0 8e f4 91 bd 01 28 39 3e 05 6e 4e 3e 80 fa 15 be
       -0.07126723 0.18081667 0.20159157 -0.1464634
0002b0 ad a7 5c be e9 67 94 3d 4f f2 38 3e 67 01 ea bc
       -0.21548338 0.07246382 0.18061183 -0.028565122
0002c0 6e 96 1b be cb bc 57 3d f3 ca d5 3d 6c ff 28 bb
       -0.15194103 0.05267028 0.104391 -0.002578701
0002d0 23 27 c0 bb 41 45 20 bd 9e d8 ec bd f9 e4 83 3d
       -0.0058640405 -0.039128546 -0.11564754 0.064401574
0002e0 2f 67 06 3e 7e 06 5f 3e 2e 12 43 3e 7a 8f 79 3e
       0.13125299 0.2177982 0.19049904 0.24371138
0002f0 21 17 1a 3e e6 80 6b 3e 01 2f 59 be ec 49 3d be
       0.15047885 0.2299839 -0.21209337 -0.1848523
000300 8e d9 fc 3d 65 dd f3 3d 5d 6c 03 bd 51 c2 b4 3d
       0.12346183 0.11907462 -0.032085765 0.088261254
000310 e0 e8 5f be cf 49 6e 3e ea 4c 78 3e 0a 61 bd 3c
       -0.21866179 0.23270343 0.2424809 0.02311756
000320 39 f7 5c be 72 6a 1f be 03 61 a0 bc 0f 8a 57 bd
       -0.21578683 -0.1556795 -0.019577509 -0.052621897
000330 ef 5d 90 bd 26 49 11 3e 89 51 f9 bd 9a 4a 87 bc
       -0.070491664 0.1418806 -0.12173755 -0.016515065
000340 bc d2 25 be 28 7a 2a be d7 e5 27 be 52 70 0c 3d
       -0.1619367 -0.16648161 -0.1639627 0.034286804
000350 c2 13 56 3e d5 0a 43 bc b3 1c 20 bd fd 58 f3 bc
       0.20905975 -0.011904438 -0.03908987 -0.029705519

conv1.bias f4 [8]
000000 01 49 73 3b e9 c4 fc bb b2 18 30 bb aa 11 b0 b9
       0.003712237 -0.007713903 -0.0026870188 -0.00033582497
000010 cd 1d 7f bb 60 11 c4 3a c6 e2 9f 3b 90 9c a2 3b
       -0.0038927675 0.0014958791 0.0048793284 0.0049625114

conv2.weight f4 [16, 8, 3, 3]
000000 6f 55 d8 bd 62 c1 d7 bb 9b 55 06 bd 0f 95 1e 3d
       -0.1056317 -0.0065843323 -0.032796483 0.038716372
000010 fb d6 f0 3d 02 53 a0 bd 20 c1 e2 bd d6 bb e2 3c
       0.11759754 -0.078283325 -0.11071992 0.027677458
000020 30 6c 1c bd 15 f2 27 be de 18 23 be 0d 0e 08 bd
       -0.038189113 -0.1640094 -0.15927455 -0.033216525
000030 60 6e aa bc 1d 65 37 bd 23 2e 00 3c 6b 5d 14 3e
       -0.020804584 -0.044774164 0.0078235 0.14488761
000040 7f b4 1e bd 63 a8 0c be 36 4b df bd 17 03 07 be
       -0.038746353 -0.1373611 -0.10903017 -0.13184772
000050 82 4c 60 3b 9c a2 8f 3d 7c 46 cd bd 74 6d ac bd
       0.003422529 0.07013437 -0.100232095 -0.08419314
000060 e6 19 19 3d 7e 90 f7 3d 10 6a dd bd 54 17 09 3e
       0.037378214 0.120881066 -0.108112454 0.13387805
000070 f1 74 09 be 28 a5 09 3d 52 b0 92 bd 84 fb b4 b8
       -0.13423516 0.03360477 -0.07162537 -8.629917e-05
000080 0f e4 4e bb e6 e2 f8 3d 5b 0c 37 bd e8 8f 9d bd
       -0.003156904 0.121526524 -0.044689517 -0.076934636
000090 34 c2 9c 3d 86 e0 02 3e 2b 65 29 3e b6 32 c6 3d
       0.07654229 0.12780961 0.16542499 0.09677641
0000a0 41 7a da bd 3d 44 2f bd 8c e3 35 bd 36 10 06 3e
       -0.10667849 -0.042789686 -0.04440646 0.13092121
0000b0 05 99 2c bd 26 2d d5 3c b0 24 2e 3d 64 77 12 3e
       -0.04213812 0.026022505 0.042515457 0.14303356
0000c0 98 fd 05 be 76 27 57 3d 3c 76 16 3d 50 91 d5 3d
       -0.1308502 0.052527867 0.03673385 0.10428107
0000d0 7f 7b 06 3e 8d 74 f1 3d 38 0b 99 bd df 5d 18 3e
       0.13133048 0.117898084 -0.07472843 0.14879559
0000e0 3a 29 71 bd e2 d2 a2 bd 4f a7 00 3d 96 0d 71 3d
       -0.058877207 -0.07950379 0.031409558 0.058850847
0000f0 b9 91 f7 3d 93 d4 d1 3d 81 44 23 be fb 74 3f bd
       0.12088341 0.102456234 -0.15944101 -0.04674242
000100 ba 29 91 3d dd aa 92 bd 74 e7 9e 3d 6b 01 02 bd
       0.07088037 -0.07161496 0.0775899 -0.031739634
000110 2a a9 9f 39 b9 4f 15 be 43 10 aa bc 23 dd c4 3d
       0.0003045288 -0.14581193 -0.020759707 0.09612491
000120 20 24 a8 bd 1e a3 4d bc d2 6c 37 bd e0 9c 95 bd
       -0.08210015 -0.012551097 -0.044781514 -0.07305312
000130 6e f1 88 bc b1 ed 98 bd 72 bb 14 3d 47 d6 bb bd
       -0.016716685 -0.07467211 0.036311574 -0.091717295
000140 93 f5 47 3d bf c3 be 3d cb d8 ac bc c2 dd 14 be
       0.048818182 0.09314679 -0.021099469 -0.14537719
000150 1a c5 11 be a8 77 17 3e 05 29 1d be 34 3f 4b 3d
       -0.14235345 0.14791739 -0.15347679 0.049620822
000160 2f b3 f5 bd 8b c6 10 3d 56 d0 8c bd 3a f0 52 bd
       -0.11997067 0.035345595 -0.068756744 -0.05149863
000170 92 99 d7 3d cf c0 1e 3e 64 f8 83 3d 9e 72 f8 3d
       0.10527338 0.15503238 0.06443861 0.121312365
000180 3a 47 80 bd 52 29 8f 3d e3 eb 04 3e d7 c8 06 be
       -0.062635854 0.06990303 0.12980609 -0.13162552
000190 f0 78 a3 3a 5b cb 87 3c 58 05 2b 3e 30 84 17 3e
       0.0012471955 0.01657646 0.16701257 0.1479652
0001a0 d3 b8 4a 3c 9d 28 29 3d 14 d7 6d bd 3a 81 0c 3e
       0.012373167 0.041298497 -0.058066443 0.13721171
0001b0 6e c8 d6 bd e5 c3 ed bd c8 67 7e 3d 1d f4 59 bc
       -0.10487448 -0.116096295 0.062110692 -0.01330283
0001c0 7c 36 a1 bd 94 e5 a4 3d 75 c9 b9 3d fb 5c 85 bd
       -0.0787172 0.08051601 0.09071628 -0.06511875
0001d0 8d 43 21 3e 32 92 14 be c3 e9 9b bd e5 ed 20 3e
       0.15748425 -0.14508894 -0.07612946 0.1571575
0001e0 3f d5 c7 3d c4 07 c8 3d 95 dd 48 bd 11 cb bf 3c
       0.0975747 0.09767106 -0.049039442 0.02341226
0001f0 64 e5 0b be 5a 0d 26 bd d1 40 2a bd 8f 76 0a be
       -0.13661724 -0.040540077 -0.04156572 -0.13521789
000200 89 d9 ef 3d 12 fd b9 bb c2 88 9a bd 1f 7b 2b 3e
       0.117114134 -0.0056759203 -0.07545616 0.16746186
000210 24 61 96 bd 94 c3 07 bb 9b 1b 0d 3d 68 85 f1 bd
       -0.07342747 -0.002071594 0.034450155 -0.11793023
000220 ed 2d a6 3d 4f bc c5 3d c2 38 26 3e 71 b1 ce 3d
       0.081142284 0.09655058 0.16232589 0.10092438
000230 03 49 26 bd 5d d4 4b 3d 53 e6 9c 3c 94 92 f0 bd
       -0.040596973 0.049763072 0.019152796 -0.117467076
000240 12 b1 d5 3d ec cd f8 3d bf 9d 8d bd 6a da 13 be
       0.10434164 0.121486515 -0.06914853 -0.14438787
000250 51 be 86 3d f5 bf 6c bd cc a4 f2 3d b4 d2 0f 3e
       0.06579269 -0.057800252 0.11847839 0.1404522
000260 dc ad b7 bd 27 b2 cb 3b 71 26 c4 3c a7 a8 f6 3d
       -0.08968708 0.006216306 0.023944112 0.12043887
000270 77 91 12 3e c8 fe 02 3e 2c b2 be 3d 0c ff b9 3c
       0.14313303 0.12792504 0.09311327 0.022704624
000280 0b 99 2c bd 46 52 0a be 95 4f 74 3d b7 ab d5 bd
       -0.04213814 -0.13507947 0.059646208 -0.10433143
000290 d9 27 1f 3e a3 13 8c 3b 8d dd b7 bd b2 2e 08 be
       0.15542544 0.004274802 -0.08977804 -0.13299063
0002a0 3f 29 96 bb 9a f3 08 be 40 73 00 3e c6 3d 53 bb
       -0.0045825536 -0.13374177 0.12543964 -0.0032232865
0002b0 6e 62 fe bd ac cf 75 bd db 97 8f bd fa 0d cb bc
       -0.12421118 -0.060012504 -0.07011386 -0.024786938
0002c0 c9 f0 b6 bd d1 5b 03 be 7a ce 42 bc e2 26 2a 3d
       -0.08932645 -0.12827994 -0.011890048 0.041540988
0002d0 97 92 52 3d b9 1c 24 3e 05 4e 25 3e 49 4b cc bd
       0.05140933 0.16026582 0.16143043 -0.09975297
0002e0 1e fc b8 bd 7a ae ee 3d 69 eb 37 3d 65 05 29 3e
       -0.090324625 0.116543725 0.04490224 0.16505964
0002f0 38 6f 8c 3d 00 39 d6 bd 0f 98 b7 3c 4a ae a6 3d
       0.06857151 -0.10460091 0.022411374 0.08138712
000300 02 4a ae 3c af 5f ce bd ad 53 20 3e 25 98 b2 3d
       0.021275524 -0.10076844 0.1565692 0.087204255
000310 53 c2 8c 3d 46 6e 02 be 61 42 05 3c 4f fe 1d be
       0.06873002 -0.12737378 0.008133502 -0.15429042
000320 e0 50 be 3d 3c 47 04 be b3 de e9 bd 61 76 98 bd
       0.092927694 -0.12917799 -0.1141943 -0.07444454
000330 6b dd a4 bc 13 b9 02 3e 25 46 a6 3d 8a 6a 6a bd
       -0.020125112 0.12765913 0.08118848 -0.05723051
000340 23 cd 10 3e 34 57 f9 3d 97 9a ce 3d 21 2b 85 bd
       0.14140753 0.12174836 0.100880794 -0.06502367
000350 6a 95 01 be 27 90 aa 3d 1f 00 50 3c 2b 8a 82 3d
       -0.12654653 0.08328276 0.012695341 0.0637401
000360 66 fd 23 3e 3d 9c e2 3d bc f6 1a be ad bc 66 bd
       0.16014633 0.11064956 -0.15133184 -0.05633228
000370 c5 a1 11 3c 85 39 d5 3d 01 d5 81 3d b8 d5 9a 3d
       0.0088886665 0.104113616 0.063394554 0.07560295
000380 5b de 87 3d 1a 5d 65 bd 62 29 00 3e d6 0e ea 3d
       0.06634208 -0.05599699 0.12515786 0.11428611
000390 d2 15 b3 bd 07 d5 f2 3d 01 9e e5 bd 48 ff 12 3e
       -0.08744396 0.11857038 -0.112117775 0.14355195
0003a0 8c c4 da bd c1 47 1c bd a5 a8 b3 bc be 11 03 be
       -0.106820196 -0.038154367 -0.021931002 -0.12799737
0003b0 52 a0 0b be 3b 04 00 3d 9c 8e a6 3a 6c 32 07 be
       -0.13635376 0.031254034 0.0012707296 -0.13202828
0003c0 05 9a c0 bd 8c c0 30 3d 6c b4 89 3d ae 8b 35 bd
       -0.09404377 0.043152377 0.06723866 -0.044322662
0003d0 9e 56 14 be 4f 82 6c 3d 52 e2 01 bd 41 4d 1d 3e
       -0.14486167 0.05774146 -0.031709976 0.15361501
0003e0 a8 f5 19 bc aa 1a ea bd bd 02 b6 3d da b5 fd 3d
       -0.009396948 -0.11430867 0.08887241 0.12388201
0003f0 23 aa d0 bd ca 54 d8 bd 16 e1 d1 bd 97 22 1e be
       -0.10188701 -0.10563047 -0.1024801 -0.15442882

conv2.bias f4 [16]
000000 10 4c e2 3b b0 81 fb 3b f5 55 c1 ba f5 92 6c 3c
       0.00690604 0.007675372 -0.0014750349 0.014439334
000010 cd be 88 ba 27 dc 2a 3c 92 9c c7 3b 3f b8 0b 3c
       -0.001043284 0.010428465 0.0060916627 0.008527814
000020 25 67 21 bb df 0f 64 3b 41 9a 8e 3b 72 3a 75 3b
       -0.002462813 0.00347995 0.0043518846 0.003741887
000030 b9 37 8a ba 5b b5 51 3b 07 5d c7 3b 27 8a 9a 3b
       -0.0010545171 0.0031998965 0.006084088 0.004716176

conv3.weight f4 [32, 16, 3, 3]
000000 98 ee 93 3c 21 6a c2 bd 4a ad 3e bd 5e c7 97 3d
       0.018058106 -0.09492899 -0.04655198 0.07411073
000010 3f 58 04 bd 79 2b 9c bc 93 14 da 3d b5 58 c5 3b
       -0.03231072 -0.019063698 0.106484555 0.0060225376
000020 81 67 01 3d ba a5 d5 3d 52 36 85 3d 46 98 bb bd
       0.03159285 0.104320005 0.065045014 -0.09159903
000030 57 4d bd bd b4 fd 1e 3d 9e 23 12 3c f9 92 b4 3d
       -0.09243267 0.03881617 0.008919625 0.08817095
000040 3a ea 89 bc c6 d6 14 bd bd bf 91 3c aa 1f 88 3d
       -0.01683532 -0.036337636 0.017791623 0.066466644
000050 e3 a2 eb 3d e0 f4 2e 3d 1e dd 4c bc 64 11 df bd
       0.115056776 0.042714 -0.01250389 -0.10891989
000060 70 7a db bb 05 c4 bf bb a7 eb be 3d e1 95 d5 3c
       -0.0066979453 -0.005852225 0.09322291 0.026072444
000070 c8 38 7f bd 9e 5e 2c bd 5e 2f 75 3d b9 1d d4 3d
       -0.06231001 -0.04208242 0.059859626 0.10357232
000080 67 72 56 bc 20 53 ba bb 29 5c 07 bd ba 40 81 3d
       -0.013088799 -0.005686179 -0.033046875 0.06311174
000090 1d f4 98 3d a0 f4 6c 3d c7 5a 5f bd 58 67 84 bd
       0.07468436 0.05785048 -0.05452993 -0.06465024
0000a0 98 32 91 3d 86 0a ac 3d bc 9e cb 3c 53 73 65 bd
       0.07089728 0.08400445 0.024855964 -0.056018185
0000b0 c8 71 55 3d aa 69 ba 3d 43 09 bd 3c b7 7a 05 bd
       0.052110463 0.09102185 0.023075705 -0.032587733
0000c0 74 37 b8 bd 71 62 27 3d cf 4c 18 bd 3c 4d e1 bd
       -0.08994952 0.040865365 -0.037182625 -0.110010594
0000d0 16 2e 80 3c 1a 24 38 bd 2a b0 46 bc 0f 9c 83 3d
       0.015646975 -0.044956304 -0.012126962 0.0642625
0000e0 c4 28 8d bd 22 10 30 bd 05 80 2a bd 84 17 cc bd
       -0.06892541 -0.042984135 -0.041625995 -0.09965423
0000f0 86 39 f0 3c 21 ba b4 3d 71 a8 05 3c 98 7e 1f 3d
       0.029324304 0.08824564 0.008157835 0.03893909
000100 90 33 97 bd 81 87 c5 3c f3 1e f9 bc f8 60 e6 3d
       -0.07382882 0.024112465 -0.030410266 0.11248964
000110 14 eb 11 bb ac e5 a6 3d f4 b2 b9 bd 66 2a c3 bc
       -0.0022265362 0.08149275 -0.09067336 -0.023823928
000120 08 cd 75 bb e4 79 59 bd 1e 80 a0 bd fc 0e c0 3d
       -0.0037506241 -0.05309476 -0.078369364 0.09377858
000130 5d d8 ce 3d 13 11 32 bd 25 2a 04 bd f2 4b 57 3d
       0.10099862 -0.043473314 -0.032266755 0.05256266
000140 80 d7 15 bd b7 a7 a9 3d be a7 de bd 93 34 07 3c
       -0.03658247 0.08283942 -0.10871838 0.008252281
000150 24 14 9c bd 3c fa 82 3d 69 cc 8d bd 9e 19 a9 3c
       -0.07621029 0.06395385 -0.06923754 0.020642098
000160 11 40 81 3d cc ee c3 bc dd a3 f2 b9 38 0b a6 bd
       0.06311048 -0.023917578 -0.00046279925 -0.081076086
000170 41 6d 36 bc c6 26 ae 3d e6 f3 d1 bd 73 d1 bf 3d
       -0.011134447 0.08503489 -0.10251598 0.09366121
000180 9b ff 45 3d 76 23 fd 3c 8d ed e0 3d 6c fa a6 bc
       0.048339467 0.030900698 0.10982809 -0.020383082
000190 0f a4 21 bd 83 3b a4 bd 8b 2e f2 3d 7c d7 48 3d
       -0.0394631 -0.080191635 0.118252836 0.049033627
0001a0 da d0 a8 3d 1c b2 71 3d d8 06 2c b9 86 88 c2 3d
       0.0824296 0.05900775 -0.00016405748 0.09498696
0001b0 60 dc d1 bd 4c dd f4 bc 16 6c 0b bd 04 d0 8d 3d
       -0.10247111 -0.029890679 -0.034038626 0.069244415
0001c0 25 9f a9 bd f3 ee 81 bc 4f 94 bd 3d d3 9c 8c bd
       -0.082823075 -0.01586101 0.09256803 -0.06865849
0001d0 56 de c8 3d 93 59 35 bd 5f 63 3f 3d 65 4f e1 bd
       0.09808032 -0.044274878 0.046725627 -0.110014714
0001e0 2f 85 8a bc 8c 42 91 bd 6c 05 58 3d 28 0a cd bd
       -0.01690921 -0.07092771 0.052739546 -0.10011703
0001f0 3f 74 ef 3d cc 77 cf bd af 8c 4c bd c2 99 99 bd
       0.11692094 -0.10130271 -0.049938854 -0.0750003
000200 ec 17 59 bc 40 f0 d6 bd b2 ce e5 3d 1a 0e d9 bd
       -0.013250332 -0.10495043 0.112210646 -0.10598393
000210 03 ae cf bd d8 78 27 bd 47 f6 3d 3d 6c d1 81 3c
       -0.10140612 -0.04088673 0.046377447 0.01584693
000220 ec 06 9d 3a 83 f6 c0 3d 16 30 4b 3d 48 19 0a 3d
       0.0011980212 0.094220184 0.049606405 0.033715516
000230 85 69 dd 3c c4 e2 73 bd 70 76 ca 3d e6 1c 88 3d
       0.027027855 -0.059542432 0.098858714 0.06646137
000240 5e e0 91 3d d5 45 4f 3d 58 d6 c1 bb fc c2 ec 3d
       0.07122873 0.050603706 -0.0059154443 0.11560628
000250 25 7a c3 3d 3c da b3 bc ff b5 81 bc 2d cb c2 3d
       0.095447816 -0.021954648 -0.015833853 0.09511409
000260 2d 0f a9 bd 61 fd a7 bd 2f 36 01 bd 1d fe d9 bd
       -0.08254848 -0.08202625 -0.031545814 -0.106441714
000270 b8 7a 09 3d eb 07 82 3c 53 62 83 3d ec 96 14 bd
       0.0335643 0.015872916 0.06415238 -0.036276743
000280 74 2f a6 bd f8 16 02 bd 0d cd b9 3d cc 09 30 3d
       -0.0811452 -0.031760186 0.090723135 0.042978093
000290 f1 15 ab bd 26 00 c3 bc ea ed 33 ba bb 9a fc ba
       -0.08353794 -0.023803782 -0.000686376 -0.0019272187
0002a0 8a 34 f7 3d 37 81 0b bd ea 72 5f bd 76 d0 a1 bd
       0.12070568 -0.034058776 -0.05455295 -0.07901089
0002b0 cd dc 7c 3d 41 91 b6 3d c8 1b 87 bc 2c c6 a1 bc
       0.06173401 0.08914424 -0.01649274 -0.019747816
0002c0 11 b8 1d 3d c6 18 ae 3c 50 71 eb bd a1 85 bb bc
       0.038505618 0.021252047 -0.11496222 -0.022890868
0002d0 58 4f af bd e2 9b 71 3d f8 9e d8 bd ba 43 95 3d
       -0.085600555 0.058986552 -0.10577196 0.072883084
0002e0 12 6a 4e bd 71 fd 5d 3d 0f df c3 bd 36 a1 05 bb
       -0.050394125 0.05419678 -0.095640294 -0.0020390279
0002f0 25 fe 39 bc 78 a1 00 bd ac 4b 4f 3d 15 cf 57 bd
       -0.011352097 -0.03140399 0.050609276 -0.052687723
000300 cb 59 d0 bc 12 67 a9 ba 6d 93 a3 3d d4 49 a9 3d
       -0.025433442 -0.0012924394 0.079871036 0.08266035
000310 56 27 48 3d a9 66 99 bd 6a c6 87 bc 7a de 38 bd
       0.04886564 -0.07490284 -0.016574103 -0.045134045
000320 64 1b 98 bd 13 8a e1 3d c4 56 bf bd 56 ec 96 bc
       -0.07427099 0.11012664 -0.09342721 -0.01842324
000330 81 7f c2 bd b9 91 cf 3c 48 44 9c 3d ab f5 8c 3d
       -0.09496976 0.02533804 0.07630211 0.06882795
000340 bf 4b c9 3d a5 1b 06 bd e3 30 5a bc a6 82 36 bc
       0.098289005 -0.032741208 -0.01331732 -0.011139547
000350 d9 6f a9 bd 16 c9 9d bd 14 e1 cc 3c 78 90 19 3d
       -0.08273286 -0.0770437 0.02500967 0.03749129
000360 72 f7 08 3d ca f1 8c 3d 8e 5c cc 3d 34 4b 10 3d
       0.033439107 0.06882055 0.09978591 0.03522797
000370 c5 5f 37 3c 69 8e d4 3d ce 4a 06 3d 66 3c e6 3d
       0.011192267 0.10378725 0.032786183 0.11241989
000380 6e 77 8b 3d 2e f8 d4 3d 9e 81 dd bd bc fb c5 3d
       0.06809889 0.10398899 -0.10815738 0.09667155
000390 66 de 5f bd 90 02 3a 3d 39 d6 0c bd 00 e0 b6 3b
       -0.054655455 0.0454126 -0.034383986 0.005580902
0003a0 cb c3 06 bd 73 54 a0 bd 46 4e 3d bd fc e8 4f bd
       -0.032901566 -0.078286074 -0.046217225 -0.0507593
0003b0 99 66 b0 3d 3c d1 20 bb a8 54 a6 3d 95 86 ab bd
       0.08613319 -0.0024538776 0.08121616 -0.08375279
0003c0 a8 0f 26 3c ff b1 91 3d a4 d1 83 3d ba a6 90 bd
       0.010135569 0.07114028 0.0643647 -0.070630506
0003d0 f6 b6 a0 3d 4a f7 8f 3b 17 1c 39 bb 99 d1 c3 3d
       0.07847397 0.004393493 -0.0028245503 0.09561462
0003e0 da bd b0 bd 36 fd 09 bd 0e 59 7b bd 73 e5 d5 3d
       -0.08629961 -0.033688746 -0.061364226 0.104441546
0003f0 f6 ef b4 bd 11 58 98 bd 82 5a ac bd af 3a c0 3d
       -0.088348314 -0.07438672 -0.084157005 0.09386193

conv3.bias f4 [32]
000000 82 6f 89 3a 9d cd 7d 3a 3d 45 e6 3b 68 a1 dd 3a
       0.0010485502 0.0009681823 0.007027297 0.0016909065
000010 95 7f 93 3a 9d 45 aa 39 6d b9 c8 b9 81 66 55 3a
       0.0011253232 0.00032476793 -0.00038285126 0.00081405794
000020 14 d9 7e 39 0b 19 73 3b f5 26 07 3b 37 74 95 3b
       0.00024304196 0.0037093784 0.0020622585 0.004560973
000030 ec a0 dc 3b 2a 1c 9a 3a d4 8d 09 3b 34 20 c1 3a
       0.0067330506 0.0011757661 0.0020989077 0.0014734329
000040 d0 e7 43 3b 22 24 86 3b a9 49 d4 3a a8 e4 f9 3a
       0.002989281 0.004093663 0.0016196269 0.0019065337
000050 b9 04 4d 3b 02 00 52 3b 97 f6 1f 3b 97 ce 1d 3b
       0.0031283333 0.0032043462 0.0024408454 0.0024079436
000060 0f db e6 ba 70 17 4c 3a f5 47 cd ba 65 6f ae b9
       -0.0017612892 0.0007785475 -0.0015661704 -0.00033270862
000070 24 ad 8f b9 09 bd fe 3a a0 6b 1c 3b e3 a6 8e 3a
       -0.00027404085 0.0019434999 0.002386786 0.0010883476

conv4.weight f4 [64, 32, 3, 3]
000000 c4 e9 b8 3c 95 a0 66 bd 5c 4b c1 bc e9 a6 53 bd
       0.022572406 -0.056305487 -0.023595504 -0.05167285
000010 d2 19 3f 3d 23 fa 2a 3d 8e a2 03 3d f1 7b be 3c
       0.046655484 0.041742455 0.032137446 0.02325246
000020 1a fb 71 bd b5 e2 6e 3d c4 45 8b bd ed ac 24 3d
       -0.05907736 0.058321673 -0.06800416 0.040203977
000030 c0 cc 60 3d 7b 28 c8 bc b5 9b 21 bd 1e 17 59 3d
       0.054882765 -0.024433365 -0.039455134 0.053000562
000040 78 30 11 3d 99 e8 97 3d 32 86 7a 3d 0b 06 c8 bc
       0.035446614 0.07417411 0.061163135 -0.024416944
000050 ac 35 7a bc 40 b7 8e 3d 62 cf a1 3d a7 a5 c3 3c
       -0.015271585 0.06968546 0.07900883 0.0238827
000060 90 a2 47 3d 45 65 8a bd 01 09 25 3d 20 ec 8b bd
       0.048739016 -0.06757597 0.04029179 -0.06832147
000070 08 da 8c bd d1 29 a7 3d 71 e3 5c 3c 03 40 6c 3d
       -0.06877524 0.08162273 0.013481961 0.057678234
000080 fb a0 97 3c e6 26 91 3d f4 f7 79 3d e5 d9 6c 3c
       0.018509379 0.070874974 0.061027482 0.014456247
000090 e8 98 b4 3c f4 f4 43 bd bf 1a 9b bd 45 f6 2a 3d
       0.022045568 -0.047841027 -0.07573461 0.041738767
0000a0 9b ba ac bd 46 0f 9c bc cf 58 60 bd 1b 75 11 3c
       -0.0843403 -0.019050252 -0.054772194 0.008878018
0000b0 82 2f 4d 3d b2 d5 16 bd 23 73 9a 3d 7f c0 9b bd
       0.050094135 -0.03682489 0.07541492 -0.07605075
0000c0 c5 1e 86 3d d2 18 9d 3c 6e c8 78 bd ba 3f 10 bd
       0.065488376 0.019176874 -0.06073802 -0.035217024
0000d0 8e d5 53 3b d6 47 6a 3d e3 41 16 3d 3e f6 16 3b
       0.0032323333 0.057197414 0.03668393 0.0023034955
0000e0 14 2b 43 3b 51 0d 46 3d 78 42 d7 3c e8 36 92 3d
       0.0029780315 0.048352543 0.026276812 0.07139379
0000f0 65 26 6e 3c eb 9a 26 bd 03 d4 32 3d 51 55 8f bc
       0.014535521 -0.040675085 0.04365922 -0.017496737
000100 87 8b e3 bc b0 c6 35 bc 64 c2 07 3d 64 e4 62 3c
       -0.027776493 -0.011094734 0.03314437 0.013848398
000110 a7 1e 8e 3d 61 29 63 bd bb e4 b7 3c ef bb 76 3d
       0.0693944 -0.055459384 0.022447934 0.06023782
000120 d0 78 42 bd b9 e4 75 bd fa 35 58 3d 81 fe 89 bb
       -0.047478497 -0.06003258 0.05278585 -0.0042112474
000130 bb f0 88 3d dc 71 4a 3d b7 06 20 3d 15 24 3a bd
       0.06686541 0.04942499 0.039068904 -0.045444567
000140 74 38 d9 b9 ba c7 1b 3c 21 40 df bc 3b 93 7b bd
       -0.00041431526 0.009508068 -0.027252259 -0.061419707
000150 a9 96 6f bd d3 b5 95 3d e8 96 18 3d e8 7f 23 3d
       -0.05849329 0.07310071 0.03725329 0.039916903
000160 5c 91 d9 3c 56 a4 09 3d d2 22 9a bc e6 52 06 3d
       0.02655857 0.03360399 -0.018815432 0.0327939
000170 4b 5f a0 3d ef fe 9c 3d e3 86 03 bc 9a 6c 34 bc
       0.07830676 0.07665812 -0.008027765 -0.011012221
000180 62 0a 86 bd 64 7e 7a 3d c0 cc 27 bd 07 3d 02 bd
       -0.06544949 0.06115569 -0.04096675 -0.03179648
000190 c7 21 09 bc 15 85 31 bb 5a 0f 9d 3d 52 33 13 bd
       -0.00836987 -0.002708738 0.07668944 -0.035937615
0001a0 56 62 97 bd 48 cf 2b bc d9 23 c1 bb 00 05 57 3d
       -0.07391803 -0.010486431 -0.005894166 0.052495003
0001b0 a6 a9 56 3d 93 af 62 3d 5d b1 23 bd ad 77 84 3d
       0.052407883 0.055343222 -0.03996407 0.06468139
0001c0 bd 42 97 bd e4 fe 7d bd 52 ac cd bc ce 9f 14 bd
       -0.07385776 -0.06201066 -0.025106583 -0.036285214
0001d0 92 d9 04 bb c6 ec 6d bc c5 8d aa bd b9 f7 10 bd
       -0.0020271284 -0.014521783 -0.08327822 -0.035392497
0001e0 54 97 90 3d 87 33 1e 3d 0c 09 2e bd f1 99 a7 bd
       0.070601135 0.03862336 -0.042489097 -0.08183659
0001f0 9f 70 19 3d 8b 89 81 3d 09 e9 6f 3d 70 c3 8a 3d
       0.03746092 0.06325062 0.05857185 0.06775558
000200 70 41 2b 3d f3 99 da 3b 61 9c 3c 3d 5f dc 5c bd
       0.041810453 0.006671184 0.046047572 -0.0539211
000210 2e b0 09 3d a1 2b bc ba 85 b7 73 bd 34 4c 3f 3b
       0.033615284 -0.0014356264 -0.05950119 0.0029189708
000220 85 e9 15 bd d4 04 a7 3d 25 7b 9b bd 72 08 4d bb
       -0.036599655 0.08155218 -0.07591847 -0.0031285551
000230 ab b8 15 3d 98 5f 31 3c 00 c4 9a 3d e9 4c 27 bc
       0.036553066 0.010826014 0.07556915 -0.010211208
000240 fe 5c 3e bd 31 08 90 3d 35 dd 79 bd 1a c4 62 bd
       -0.046475403 0.070328124 -0.061001975 -0.0553628
000250 0a d6 0a 3c a2 7a 7d bd 50 2b bd 3b 93 1c ed 3b
       0.008473882 -0.06188453 0.0057729855 0.0072360723
000260 42 34 56 bd 41 15 45 3d 1c 6f 63 3d 0f bb 86 bc
       -0.05229593 0.048115972 0.055525884 -0.016446618
000270 88 28 ea bc a3 59 8f bd 4c d6 9c 3b 37 36 45 bd
       -0.02858378 -0.06999519 0.0047862884 -0.048147406
000280 e1 71 4a bd 6c 23 07 3d 87 2c 0d bd 11 f4 f9 3c
       -0.04942501 0.032992765 -0.034466293 0.030511888
000290 95 0b 9d 3d a9 5c 6b bd 98 c9 4c 3d f5 7e e7 3b
       0.07668225 -0.057461414 0.049996942 0.007064695
0002a0 67 10 a8 bd 43 93 ad bc 74 5e b8 3c 40 08 8c 3d
       -0.082062535 -0.021188384 0.022505976 0.06837511
0002b0 dc ef 47 bd 73 2b ad bb ed d5 8e bc 48 47 8f 3d
       -0.048812732 -0.0052847206 -0.017435992 0.06996018
0002c0 19 2a 2f 3d 95 3a 81 bd 1c 4b da bc 60 ba f6 3b
       0.042764757 -0.06310002 -0.026647143 0.007529542
0002d0 ea 7e 9d bc b3 3a 08 3d 9e 00 a1 3d 40 af 9a bd
       -0.019225556 0.033259105 0.07861446 -0.075529575
0002e0 53 6d a9 3c 62 23 2f bd 30 f8 1c bc b4 f6 1b 3d
       0.020682013 -0.042758353 -0.009580657 0.03807707
0002f0 a7 5f 54 3d 14 f8 db bc 17 ba b9 bc 3e 01 ab 3c
       0.051849034 -0.026851691 -0.022671742 0.020874616
000300 0a 22 9f 3d 5f ae 9e 3d 72 b9 22 bd 2c be 02 bc
       0.07770164 0.077481024 -0.039727636 -0.007979911
000310 f0 c3 9d bd 6a 45 ab 3c c8 46 68 bd 19 94 29 ba
       -0.07703388 0.020907123 -0.056708127 -0.00064689066
000320 99 ef 09 bc 7e e5 90 3c 12 f2 52 bd 4f a4 75 bd
       -0.008418941 0.017687555 -0.051500387 -0.05997115
000330 c2 28 b3 bd c8 b5 1a 3d 1a 96 8c bd e9 21 a5 bd
       -0.08748008 0.037771016 -0.06864567 -0.080631085
000340 fd 67 3b 3c e1 03 a7 bc 6f 14 a5 3c 12 8e 1f 3d
       0.011438367 -0.020387592 0.020151345 0.03895385
000350 81 6e 26 bd c9 1b 70 bd 5f e0 6b 3d 47 83 73 bd
       -0.04063273 -0.058620248 0.057587024 -0.059451368
000360 cc f5 e3 bb 87 ac 3b bd 95 38 90 bd 37 4f ce 3c
       -0.0069567915 -0.04581883 -0.07042042 0.025184257
000370 8f 37 39 bd 98 fd f8 3b 35 73 31 bd 5e 7c a6 3d
       -0.045219 0.00759859 -0.04332276 0.0812919
000380 5d a4 70 bd 5e 75 56 3d dc f5 ab 3c 78 06 dd bc
       -0.0587505 0.052358024 0.020991258 -0.026980624
000390 33 51 60 3d 56 ab 1b 3d 4f 77 4d 3d 9c a7 ef bc
       0.054764938 0.038005196 0.05016261 -0.029254727
0003a0 0f 70 a1 bd b1 bc 0d 3d ce 00 56 3d c5 55 89 bd
       -0.078827016 0.03460378 0.05224686 -0.06705812
0003b0 4b c0 4d 3d 96 6e 1d 3d b7 b8 65 bb 38 2e 4f 3d
       0.050232213 0.03843554 -0.0035052726 0.050581187
0003c0 72 b7 af bd 9d 3b b0 3b 8e c6 24 bc cc c0 8d bd
       -0.08579911 0.0053782 -0.010057105 -0.06921539
0003d0 95 77 52 3d 3b 15 f7 bc 31 b8 3c bd 2f 55 d2 bc
       0.051383574 -0.03016149 -0.046074096 -0.025675384
0003e0 22 23 23 bd 65 46 94 bd 3c 0c 83 bd 71 a7 8c bd
       -0.039828427 -0.07239989 -0.06398818 -0.068678744
0003f0 47 dc 61 3c 25 1d 6d bd 36 09 95 3c b5 28 48 3d
       0.013785428 -0.057889123 0.018192869 0.048866946

conv4.bias f4 [64]
000000 d0 3f 78 bb 86 25 40 3b df 5f b3 39 25 00 6c 3b
       -0.0037879832 0.002931924 0.0003421297 0.0036010828
000010 68 65 01 3a 00 65 47 3a 01 66 d0 38 b6 b8 26 3b
       0.000493607 0.0007606298 9.9372126e-05 0.0025439686
000020 38 a7 30 3b c5 6a 0a 3b c8 99 e3 38 af c9 0d bb
       0.002695514 0.0021120769 0.000108528475 -0.0021635105
000030 69 6a 82 b8 a3 cc 0b ba e7 84 71 b8 98 59 63 3b
       -6.2187035e-05 -0.00053329224 -5.7582653e-05 0.0034690853
000040 f1 34 02 bb c7 7c ee 39 26 6e e2 3a f0 ef c0 38
       -0.0019867981 0.00045487864 0.0017275258 9.199965e-05
000050 c2 41 f4 ba a1 ea 81 ba a1 41 5d 3a de 9e 4e 3a
       -0.001863532 -0.0009911844 0.00084402604 0.00078819494
000060 cb b4 11 bb 66 25 c9 3a a0 29 33 3b 9f a0 63 3b
       -0.0022233005 0.0015346229 0.0027338043 0.0034733189
000070 97 5b 4c 3a da cd 9c 39 af 9f 61 3a c1 32 0f ba
       0.00077956304 0.0002990801 0.00086068636 -0.000546258
000080 12 1a 90 3a 74 c0 48 3a 99 00 f1 ba 49 70 5e 3b
       0.0010994098 0.0007658072 -0.0018387019 0.003394144
000090 98 5a 82 b9 63 ac 0a 3a 3e 3f 98 39 11 2e 66 3b
       -0.0002486303 0.000528997 0.00029038818 0.0035122673
0000a0 20 0c 12 3b 89 36 47 3a ea dc 14 ba 50 f2 c5 3a
       0.002228506 0.0007599374 -0.0005678671 0.0015102122
0000b0 ce 2a 1a ba bd de 7b 3a d0 06 8c 3b 68 c2 3b 3b
       -0.0005881012 0.0009608081 0.004273273 0.002864981
0000c0 8d 05 24 3b 18 43 85 3b eb ce c3 3a a9 5b 9f 39
       0.0025027723 0.004066836 0.0014938986 0.00030395135
0000d0 d3 63 91 3a 0e 3d 6b 3a 23 ae 34 3a 75 de 29 3b
       0.0011092372 0.00089736364 0.00068924035 0.0025919948
0000e0 d1 a8 e9 3a 78 2e 30 b9 bc 9c a4 b9 5a 9f 2d 3a
       0.00178268 -0.00016801979 -0.00031397294 0.00066231715
0000f0 56 f1 0f 3b ce 7d e6 3a 8b 9f 46 3b 69 0d 01 3a
       0.0021963916 0.00175851 0.0030307497 0.0004922958

fc1.weight f4 [32, 2304]
000000 66 05 d6 bc 6d aa 94 bc f3 7d 35 3d e3 a9 22 3d
       -0.026125621 -0.018147672 0.044309568 0.039712798
000010 23 9f 1d bd 79 86 22 bd b7 68 85 bc 43 b0 0d bd
       -0.038481843 -0.039679024 -0.016285283 -0.034591924
000020 f0 f3 aa 3b 19 9c c7 3c ab 92 10 3b b0 3b b1 3c
       0.005217068 0.024366425 0.0022060077 0.021634907
000030 cb 91 15 3d 7d 62 1a 3d d2 6e e5 ba 5e 44 2c bd
       0.036515992 0.037691582 -0.001750434 -0.042057388
000040 be de 45 3d fa c1 2a 3d b8 36 a5 bc bc 80 e8 bb
       0.048308127 0.041688897 -0.020167693 -0.0070954245
000050 28 5f ff 3c a1 7d 9c bb 91 a5 19 bd ee dd 23 3d
       0.031173304 -0.0047757183 -0.037511412 0.04000657
000060 f1 2a 38 bd d5 4d ef bc 18 0d 2b bd b7 32 78 bb
       -0.044962827 -0.029211918 -0.041760534 -0.0037872025
000070 2a 38 31 3d 97 b0 cb 3c 8b dd 83 3b 87 d8 d8 bc
       0.043266453 0.024864478 0.0040242127 -0.026470436
000080 9d 0f 1e bd a2 15 fb bc 05 8b d1 3c fc d8 7e bc
       -0.03858911 -0.030649964 0.025578985 -0.015554663
000090 a5 5d 92 bc 95 5f a1 bb f1 34 8b 3c 66 a5 3f bd
       -0.017866919 -0.0049247243 0.016993018 -0.046788596
0000a0 35 ee 9e bc 02 84 28 bd b7 60 11 bd 01 00 19 bd
       -0.019400695 -0.041141517 -0.035492625 -0.03735352
0000b0 03 89 08 3d ac 6a 18 3d 06 62 47 bd 2e 54 35 bd
       0.03333379 0.037211105 -0.048677467 -0.044269733
0000c0 80 04 6f bc ea 3e 21 3d 52 77 0c 3d 4a 8f 8a 3b
       -0.014588475 0.03936664 0.03429348 0.004228507
0000d0 a8 2f 04 ba 89 86 23 3d 77 3d 46 3d 9e b4 61 3c
       -0.0005042502 0.039923225 0.04839846 0.013775973
0000e0 a6 8c c9 3b cf 38 18 3d 0b 14 c5 bc 36 12 2d bc
       0.0061508 0.037163552 -0.024057409 -0.010563424
0000f0 00 6d 07 3d 87 a8 ce bb 81 52 10 3d 91 df 66 bb
       0.033062935 -0.006306711 0.03523493 -0.003522847
000100 31 7a 34 bd 2d f0 4e bd 9b 5a 93 3c 7a 79 ac 3b
       -0.044061843 -0.05052202 0.01798754 0.0052635046
000110 bc 60 fc bc 5e b6 88 38 b2 0e fa bc e1 ae d7 3c
       -0.030807845 6.518954e-05 -0.030524585 0.026328506
000120 2e 75 27 bd 58 aa 7e bc 79 28 b8 3c 27 72 96 3c
       -0.040883236 -0.015543543 0.022480236 0.018364979
000130 0f ec 37 3d 81 9e 4b 3c 80 28 38 bd 13 1e 30 bd
       0.044902857 0.012427927 -0.0449605 -0.04299743
000140 b6 bf c2 3c 56 2f ab 3c c1 a6 6e 3b 8a 64 1f 3b
       0.023773056 0.020896595 0.003641531 0.00243214
000150 bf 53 09 3d aa a3 2c 3d bc f8 20 bc 60 10 45 bd
       0.033527132 0.04214827 -0.009824928 -0.04811132
000160 82 f6 1a bd 15 57 9d 3b 7c 25 2f 3d 9c a6 2b bd
       -0.037832744 0.0048016408 0.042760357 -0.041906938
000170 6b 3e 35 bd 7f d4 95 bc 87 0f d4 3c d0 5b 05 3d
       -0.04424898 -0.018289803 0.02588631 0.032558262
000180 7c cc b2 3c c8 83 ef bc 84 9f 14 3d 22 16 d1 bc
       0.021826021 -0.029237643 0.03628494 -0.025523249
000190 a6 6d ba bc 4e 30 1c bd 14 a5 02 bd 22 db 32 bd
       -0.022757363 -0.038132004 -0.031895712 -0.043666013
0001a0 fe ad 11 3d f5 68 e3 bc 7b 1e 49 bd 30 5c e1 bc
       0.035566323 -0.027760008 -0.049101334 -0.027509779
0001b0 28 36 a9 3c 8a 37 24 3d 1f a1 b1 3c 87 fe e6 bc
       0.020655707 0.04009203 0.021683274 -0.02819754
0001c0 83 4b 8b bc 5a a7 36 bd 97 86 26 bd 1d f3 4c 3c
       -0.01700378 -0.044593193 -0.0406557 0.012509135
0001d0 65 45 8e bc 7e cf 30 bd 9e e8 c9 3c 30 20 d5 bc
       -0.017367074 -0.04316663 0.024647053 -0.026016325
0001e0 cc 5c ff 3c 7d 46 0c bd ce 62 48 bd f3 47 95 3c
       0.031172179 -0.03424691 -0.048922352 0.018222785
0001f0 c1 45 c1 3c ba e3 38 3d a3 d9 19 bd 83 d2 bf 3c
       0.023592832 0.045139052 -0.03756107 0.02341581
000200 cb bd 06 3d 35 9b 90 bc b0 8f b5 bb 70 ec 14 bd
       0.032895844 -0.017652133 -0.0055408105 -0.036358297
000210 1e d4 ed 3a 8c d8 b8 3c dd 6f e8 bc 60 39 21 3d
       0.0018144881 0.022564195 -0.028373653 0.039361358
000220 b8 5e 43 3c 66 9d c5 bc c7 bf 37 3d 37 99 4d bd
       0.011924438 -0.024122905 0.044860628 -0.050194945
000230 0c 73 2b 3d 04 0a 53 bc 56 37 1f 3d e5 37 2b 3d
       0.041857764 -0.012880806 0.03887113 0.041801352
000240 e0 19 80 bc c9 93 f8 3c 09 12 d0 3c c5 14 40 bc
       -0.015637338 0.030343907 0.025399225 -0.011723702
000250 b3 a4 6a 3c 36 bd 08 3d 04 90 11 bb f2 7a d3 3a
       0.014321494 0.03338357 -0.0022211084 0.0016134663
000260 f1 bd 32 bd c5 29 10 3d 17 7a 1b 3c d0 93 9d 3c
       -0.043638173 0.035196085 0.009489558 0.019235522
000270 63 9c 03 3c c3 8f 66 bc ef 93 14 3d 6e 73 27 3c
       0.008032891 -0.014072361 0.036273893 0.010220392
000280 02 f5 a6 bb f4 de 27 3a f6 c7 fb bc 08 f8 1f 3b
       -0.005095125 0.0006403767 -0.030734997 0.0024409313
000290 9e 7c c6 bc a9 ae 2c 3d 29 39 21 3d ac 17 e6 bc
       -0.024229344 0.042158756 0.039361153 -0.02808746
0002a0 a8 b8 4e bd 43 17 8a 3c 27 cb e3 3c 13 2d e8 39
       -0.05046907 0.016856795 0.027806832 0.0004428407
0002b0 3b c3 cb 3c 50 96 b4 3b 14 44 3e 3d 61 57 35 bb
       0.024873367 0.0055110827 0.046451643 -0.002767049
0002c0 a6 58 58 3c 13 da 28 3d 2f 05 6b 3c ad d5 84 b9
       0.013204729 0.041223597 0.014344498 -0.00025336203
0002d0 61 54 16 3d 0c 0d 07 bd 0c c4 cd 3c c5 ff 30 3d
       0.036701564 -0.032971427 0.025117896 0.04321267
0002e0 d4 4e 07 3c 2d cf 3f bd be bb 8f 3c b3 64 71 bc
       0.00825854 -0.046828438 0.017545577 -0.014733481
0002f0 5a 95 19 3d de f3 03 3d f1 24 f0 bc b7 8a 31 3c
       0.03749595 0.03221499 -0.02931449 0.010836295
000300 d2 25 f1 bb bd 7f 01 3c 5b 88 32 3d ec a8 a8 bc
       -0.007359245 0.00790399 0.04358707 -0.02058836
000310 3d 67 3b 3d 3f aa 48 3d bb e9 e8 bc 0b 97 0f 3d
       0.045752753 0.048990484 -0.028431764 0.035056155
000320 42 f5 84 3b 6d 93 4a bd 79 ba e2 bc c4 69 a2 3c
       0.0040575573 -0.049457002 -0.027676808 0.019825824
000330 76 d2 4b bd 09 e4 41 bd a5 7f 4a 3d e3 5e 2e bc
       -0.049761258 -0.047336612 0.049438138 -0.01064274
000340 00 b5 03 bd 3f b7 c2 bc 2c dc 02 bd 2e 66 bc 3c
       -0.032155037 -0.02376902 -0.031948254 0.022997942
000350 ee 25 08 3c 8a 86 38 3d 4a 22 42 3d 18 d5 62 3c
       0.008309824 0.04505018 0.04739598 0.013844751
000360 31 d5 32 bd d5 ce 5a bb 22 bb df 3c d5 2e 2d 3d
       -0.043660346 -0.0033387442 0.027310912 0.04228099
000370 89 bd 37 3d 31 23 4b 3d 4b 31 18 bd f3 7c fb 39
       0.04485849 0.049594108 -0.037156384 0.00047967545
000380 ba 90 16 bd 39 49 4b 3d 13 82 50 bd 8f ec 09 bb
       -0.036759116 0.049630377 -0.0509053 -0.002104554
000390 91 81 2e 3d 43 19 b0 bc 6b d7 ee 3c 30 6d 22 bd
       0.042604033 -0.02149642 0.029155454 -0.03965491
0003a0 c5 49 23 3d db d8 b6 3c 9d 61 ee bc ab 7e 23 bd
       0.039865274 0.022320202 -0.02909928 -0.039915722
0003b0 85 9d d4 bb b2 f7 47 bc b9 26 4a bd 02 73 f6 3c
       -0.0064885044 -0.012205051 -0.049353335 0.030084137
0003c0 4e 4e 8f bc 9f c1 2d 3d 8a 18 07 3d 3c ae a6 3c
       -0.017493393 0.04242098 0.032982387 0.020346753
0003d0 26 69 42 bd 1f cd 44 3d 5a bd 2b 3d ed 4e 35 3d
       -0.04746356 0.04804718 0.041928627 0.044264723
0003e0 90 d9 2d 3d f4 95 6c bc 59 fc 24 3d 6c dd 22 3d
       0.042443812 -0.0144400485 0.04027972 0.039761946
0003f0 d5 44 23 3b 2b 51 1e bd 51 70 07 3d ce a2 30 bc
       0.0024912853 -0.038651627 0.033066098 -0.010781003

fc1.bias f4 [32]
000000 18 db 5b ba 60 e3 b8 b9 2d b3 44 b9 5c 5f 1f ba
       -0.00083868345 -0.00035264622 -0.00018758765 -0.00060795783
000010 40 c3 8d 3a 03 63 1e 3b 00 00 00 00 3c 2a 11 3a
       0.0010815635 0.0024167902 0.0 0.00055376044
000020 54 32 af 3a 15 37 1c 39 00 00 00 00 dc a5 9d b9
       0.0013366439 0.00014897839 0.0 -0.00030068948
000030 79 8e 2e b9 46 10 dc b8 dc fe b6 3a e5 a7 47 3b
       -0.00016647008 -0.00010493449 0.0013961452 0.0030465063
000040 2e c8 a4 b9 0c f1 a4 ba 66 0b 19 39 54 10 f0 3a
       -0.00031429663 -0.0012584045 0.00014595463 0.0018315413
000050 00 00 00 00 d8 27 2e ba 55 93 9b ba 7f 23 c5 3a
       0.0 -0.00066435104 -0.001186947 0.0015040486
000060 8b 70 ac 3a 1a cb a8 37 00 00 00 00 ce fa a7 39
       0.0013156099 2.0121737e-05 0.0 0.00032039586
000070 11 f1 fd b7 9b 3a e8 ba 11 0c be 38 3e 5f ba 37
       -3.0272206e-05 -0.0017717661 9.0621535e-05 2.2217278e-05

fc2.weight f4 [64, 32]
000000 bb c9 b8 3d 76 72 b3 3c 27 ce 0b 3e 7b c7 44 3e
       0.09022852 0.021905165 0.1365286 0.19216721
000010 a1 29 89 bd 5c a4 57 3e 09 f3 d8 3b 7a 8b 4e 3d
       -0.06697393 0.21058792 0.006620769 0.050425984
000020 e5 b9 1d be c2 5a 58 3d 85 2e 6a 3d 57 6d 39 3d
       -0.15402944 0.05282093 0.05717327 0.04527029
000030 79 06 22 be 49 cc 1d be fd 9c 8b 3d 74 d1 9b bc
       -0.15822782 -0.1540996 0.068170525 -0.019020773
000040 ab e2 02 be 3a f5 b0 bc 14 68 4c be 18 89 f8 bd
       -0.1278178 -0.021601308 -0.19961578 -0.121355236
000050 af 5e 41 39 00 bf 2c be e6 07 37 3e 86 31 a7 bc
       0.00018441187 -0.16869736 0.17874107 -0.020409357
000060 aa 5f 7d 3e 94 04 b1 bd 08 a8 b1 3b 7e 8f 5f bd
       0.24743524 -0.08643451 0.005421642 -0.054580204
000070 31 46 16 3e dd bd 01 3e 86 ef 35 3d 83 14 2e bd
       0.14675213 0.12670083 0.04441788 -0.04250003
000080 d7 76 19 be ed 8c 61 3e e9 de e1 3d de ad 2a 3e
       -0.1498674 0.22026415 0.11028845 0.16667888
000090 46 b0 f3 3d 00 7a 9f bd 3b 9c ae 3c a8 1f 97 3d
       0.11898856 -0.077869415 0.02131473 0.07379085
0000a0 4f a1 ef 3d 50 6d 3d 3d e8 00 2e be 3b 42 b2 bd
       0.11700689 0.046246827 -0.16992533 -0.08704039
0000b0 3f ad 62 be cb 9e 5a 3e 51 e1 70 be 22 11 75 3e
       -0.221364 0.21349637 -0.23523451 0.23932317
0000c0 45 89 f0 3d 41 d6 70 3e f3 90 f4 3d 6c 0a 61 3d
       0.11744932 0.23519231 0.11941709 0.05494158
0000d0 dd f2 1a be a7 d2 68 be 1d 12 91 bb c2 2f fe bd
       -0.15131707 -0.22736607 -0.004427208 -0.12411453
0000e0 1e 6d b0 3d 6e 41 fc bc c4 fb 2d be fb 91 85 3d
       0.086145625 -0.030792918 -0.16990572 0.06521984
0000f0 23 2a ce 3c 35 84 10 3d 25 07 41 be 99 c3 41 3e
       0.025166577 0.035282332 -0.18850382 0.18922271
000100 34 05 00 3c 85 8e ce 3d f8 2c 62 3e 95 a9 59 3e
       0.0078137405 0.10085777 0.22087467 0.21256097
000110 c2 ac 54 3d ac 43 48 3e 4b e9 b6 bd 8e a2 cd bd
       0.051922567 0.19557065 -0.08931216 -0.100407705
000120 53 54 66 3e e4 32 3d 3e 5a a6 3e 3e 82 63 67 3e
       0.22493105 0.18476444 0.18618146 0.22596553
000130 c4 5b 81 be 31 cc 9c bc b2 94 74 3e 0e 08 42 3e
       -0.25265324 -0.019140335 0.23884848 0.18948385
000140 93 c6 38 bd a3 ad 1f 3e 4d 8a 90 3d 73 8a 44 3e
       -0.04511125 0.15593581 0.07057629 0.19193439
000150 0a 4a 37 3d 3b 7e 48 be 97 bc 1a 3e a1 ff 40 be
       0.044748344 -0.19579403 0.15111004 -0.18847515
000160 cf 94 68 be 21 87 4b 3e 84 ff e7 bd b6 14 b0 bd
       -0.22713016 0.19875766 -0.113280326 -0.085977
000170 ec 12 17 bd 50 f3 02 be 7f c0 02 3e 8b 3a f5 bd
       -0.03688328 -0.12788129 0.12768744 -0.11974057
000180 aa 27 bc bd 6a 70 3f 3e 44 68 57 be fe 44 a5 bd
       -0.09187253 0.18695226 -0.21035868 -0.080698
000190 3e cc 8d 3d 2c 57 bd 3b f4 7a 6b b5 2c b3 6f be
       0.06923722 0.005778214 -8.772324e-07 -0.23408192
0001a0 04 ec 6e be 18 b7 45 3e e7 a1 25 3e 3c 44 7d be
       -0.2333222 0.19308126 0.16175042 -0.2473306
0001b0 41 96 af 3d 54 2b 18 3e 49 b4 1c 3e cc e6 27 3e
       0.085735805 0.14860278 0.15303148 0.16396636
0001c0 8f 73 a3 3c 13 a6 2d be 7b af 47 be 90 bc 05 be
       0.019952564 -0.16957884 -0.19500534 -0.13060212
0001d0 be a6 04 b3 63 a6 60 be 98 f7 cd 3b 13 8f ef bc
       -3.0885296e-08 -0.21938471 0.006285619 -0.029243028
0001e0 ca c6 4d be 1f 6f 6e 3e f2 93 98 3c 39 e6 32 3e
       -0.20095363 0.23284577 0.018625233 0.17470635
0001f0 d6 42 0a be d7 e6 5b bc 19 af 6b bc d1 11 0a 3e
       -0.13502058 -0.013421736 -0.014385008 0.13483359
000200 2a f3 81 bd ec e2 a0 bd 07 7d 4f be f2 e2 6a bd
       -0.06345208 -0.07855782 -0.20262538 -0.05734534
000210 37 65 1f be 18 db 11 3e 37 64 0e 3e 72 63 04 3e
       -0.15565954 0.14243734 0.13905416 0.1292856
000220 29 31 ca 3b 53 6f 11 be 44 2d 1b be f3 a5 00 bc
       0.006170411 -0.14202623 -0.15153986 -0.007852065
000230 05 04 81 3e 26 c5 29 be 58 5a 95 bd c5 00 5d 3e
       0.2519838 -0.16579112 -0.07292622 0.21582325
000240 ef 76 62 be cc 20 f1 3d 8b c7 31 bb a0 f9 7e 3e
       -0.22115682 0.11773834 -0.0027126994 0.24899912
000250 73 dc eb 3a 5d 34 65 be 0d ce b3 bc 74 fa 0e 3e
       0.0017994776 -0.22383256 -0.021948839 0.13962728
000260 a7 c6 e6 3d bb a1 25 3e d3 7d 4e ba b2 b4 89 3d
       0.11268359 0.16174977 -0.00078770256 0.06723918
000270 1b ea 23 3e 85 0d 30 be 5a 73 fc 3d 9d e8 2d be
       0.16007273 -0.17192657 0.12326689 -0.16983266
000280 2a 18 0b be 4f b8 55 3e 84 24 44 be 8f 26 d9 3d
       -0.13583437 0.2087109 -0.19154555 0.106030576
000290 c3 7b 6e be c0 40 58 3e 23 b6 41 3e 95 1a 48 be
       -0.23289399 0.2111845 0.18917136 -0.1954139
0002a0 51 41 06 3e 97 3f f8 bd 13 3b 25 be 97 08 22 bd
       0.13110854 -0.12121504 -0.16135816 -0.039558973
0002b0 be 8b 16 3d 5f 69 1a be a9 30 16 be 63 ca 6f 3e
       0.036754362 -0.15079258 -0.14667 0.23417048
0002c0 08 85 c3 bd df 25 df 3d 68 2f 89 bc 17 66 52 3e
       -0.09546858 0.10895895 -0.016746238 0.20546757
0002d0 3c 25 fc 3d 57 60 ec bd 2c 99 c9 3b 84 fc 51 be
       0.123117894 -0.11541813 0.0061522927 -0.20506483
0002e0 b6 db f2 3d 6f be 53 3e ac fb a7 bd f9 55 18 be
       0.11858313 0.20678113 -0.082022995 -0.14876546
0002f0 7f 4b 3d 3e 3c d4 32 3d 15 e3 d5 bd d3 d1 e7 bd
       0.1848583 0.043659434 -0.10443703 -0.11319318
000300 c6 bd 5b 3e da 1c aa bc 37 87 17 be 86 a9 5e 3e
       0.21459112 -0.02076571 -0.14797674 0.21744356
000310 d2 b6 ba 3d 11 53 cd 3d a9 6f 6b bc 61 66 81 3e
       0.091169015 0.10025609 -0.014369884 0.2527342
000320 4c 3d 16 be 32 88 f8 bd 71 1f 2e 3d f6 f8 84 3d
       -0.1467182 -0.12135352 0.042510454 0.06492798
000330 d6 54 17 be c6 f0 72 bd a3 90 1e 3e 62 bc 4e 3d
       -0.14778456 -0.05931165 0.15484862 0.050472625
000340 e4 4f 38 3e fb b5 54 3d fe 4e 11 3d a5 14 9f bc
       0.17999226 0.051931363 0.035475723 -0.019419024
000350 a9 bf 92 3c 49 17 21 be 2f 91 9f 3c fd 0c 91 3d
       0.017913656 -0.15731539 0.019478409 0.070825554
000360 3e 00 42 be 14 ad 31 be 16 fe e0 84 a2 19 49 be
       -0.18945405 -0.1735118 -5.2895488e-36 -0.19638684
000370 ea e4 fa bd ea de e5 3d fd b2 c4 3d 6f eb 0e be
       -0.12250693 0.11224158 0.09604452 -0.13956998
000380 e1 14 0b 3d c1 f8 52 bc ad 34 d0 3d 28 36 b0 bd
       0.03395546 -0.01287669 0.10166297 -0.086040795
000390 51 b2 5a 3d e2 67 7e bd 89 82 39 3e 0c 0d fd bc
       0.053392712 -0.06211079 0.18116201 -0.03089001
0003a0 3b 7c 6e 3d 3f 00 fc 3d 03 40 3a bd 88 6e c6 bd
       0.058223944 0.123047344 -0.045471203 -0.09689051
0003b0 9b 60 44 3e f4 aa 94 bd 7d 2d 5b bd 17 45 24 be
       0.19177477 -0.07259169 -0.053510178 -0.1604198
0003c0 2f a7 1f 3e a5 6b 14 3e 90 bc 4d 3e 0a d0 59 3e
       0.15591119 0.14494188 0.20091462 0.21270767
0003d0 0d 27 1b be 62 7f 53 3e 7e af f0 3d fa 0f f5 bd
       -0.15151615 0.20654061 0.117522225 -0.11965938
0003e0 1d ad 42 3e 4a 40 2d 3e 30 7d a3 3d 81 36 1f be
       0.1901135 0.16919056 0.07982862 -0.15548135
0003f0 81 2d 28 be 4b e2 38 be 23 be 3b bd 7b dd c1 3c
       -0.16423608 -0.18055074 -0.045835625 0.02366518

fc2.bias f4 [64]
000000 c0 cb 8c bb 97 fb a4 3b 5e c7 37 3a f1 64 59 3a
       -0.00429675 0.0050348747 0.0007010604 0.00082929345
000010 0d 2f 8c 3b b5 85 54 bb ff ca 8d ba 5a 57 5e 39
       0.00427807 -0.0032428328 -0.0010817944 0.00021204111
000020 47 d7 0c bb 8f 3a c1 bb b9 25 83 3a b0 fc c2 3b
       -0.002149062 -0.0058968733 0.0010005749 0.005950533
000030 22 40 31 ba f6 37 e4 b9 7c 3f ea 3a 46 c8 e2 3b
       -0.00067615707 -0.00043529243 0.0017871703 0.006920847
000040 bd 4c ec 3b c4 26 5b 3b 9d 51 85 3b a4 02 61 ba
       0.0072112964 0.0033439854 0.004068567 -0.00085834623
000050 8a 56 8a 37 23 fc 40 ba 17 4c 4f bb 04 ff b8 bb
       1.649118e-05 -0.000736179 -0.0031631046 -0.0056456346
000060 c0 91 5b bb 2f d7 3e 3b 6e 2b 9c 3a fe 09 96 ba
       -0.0033503622 0.0029119959 0.0011914799 -0.001144707
000070 4d e6 ba 3a 8f 3b 0a 3b 0c 27 8e bb 81 bc 1e 3a
       0.0014259309 0.0021092629 -0.004338151 0.0006055311
000080 ea 48 01 3c 5a 99 2a bb 32 1b d7 b8 47 62 0c 3b
       0.007890919 -0.0026031346 -0.000102570644 0.0021420883
000090 f8 f7 6c bb 90 71 08 bb 2d 62 8e 3b 28 0a cb 38
       -0.0036158543 -0.0020819642 0.0043451996 9.681686e-05
0000a0 e1 ae e6 3b 82 48 1e bb 65 79 f5 3a 98 4f c5 3a
       0.00703989 -0.0024152105 0.0018728195 0.0015053628
0000b0 55 1f 19 b9 d3 9f ac 3b e3 2e 22 3b 25 d8 6f ba
       -0.00014602889 0.005268076 0.0024747185 -0.00091493345
0000c0 16 6b ab bb b8 cf 14 3b 4a fa f4 3b 42 25 e3 3b
       -0.0052312715 0.0022706818 0.007476126 0.0069319317
0000d0 37 99 ad bb 76 77 48 b9 97 29 cb 3a 77 50 2b 3c
       -0.0052978056 -0.00019117989 0.0015500066 0.010456196
0000e0 b2 10 d8 ba 40 fa 1b bb b3 f6 90 3b 47 5d bf 3b
       -0.0016484468 -0.0023800284 0.00442394 0.005839977
0000f0 53 22 48 3b 92 d7 33 bb 10 d6 d5 3b 94 10 99 3b
       0.0030538037 -0.0027441722 0.0065257624 0.0046711657
